best_model.pt (torch, 21879 bytes, 8 tensors)

encoder1.bias f4 [64]
0	0x3d19fef3	0.037596654
1	0x00000000	0.0
2	0x3cbecfd7	0.023292465
3	0x00000000	0.0
4	0x3ca2471b	0.019809296
5	0x3d06a057	0.032867756
6	0x00000000	0.0
7	0xbd1f32fd	-0.038866986
8	0x3d932992	0.07185663
9	0x3d0189ae	0.031625442
10	0xbb6fa71b	-0.0036568108
11	0xbb32c297	-0.002727663
12	0x3b117594	0.0022195326
13	0x3d158517	0.036503877
14	0x3c8a9e84	0.01692129
15	0x3d10a44f	0.035312947
16	0x3e158bd3	0.1460412
17	0x3c6505f2	0.013978468
18	0x00000000	0.0
19	0x3d1f4cad	0.038891483
20	0x00000000	0.0
21	0x00000000	0.0
22	0xbc195d1c	-0.009360578
23	0x3cd0f1ef	0.025505988
24	0x00000000	0.0
25	0x3cdaa379	0.026689278
26	0x3c92caa8	0.0179189
27	0x00000000	0.0
28	0x3d19ef8f	0.037581977
29	0x3d1bd329	0.038043175
30	0x3d1728e5	0.036904234
31	0x00000000	0.0
32	0x00000000	0.0
33	0x3cb365dc	0.021899156
34	0x3cd12fa2	0.025535408
35	0x3d151b48	0.03640297
36	0x3d0a1252	0.033708878
37	0x00000000	0.0
38	0xbc8b2723	-0.016986435
39	0x3c14ae30	0.009074733
40	0x3b0dbe31	0.0021628255
41	0xbbc673cb	-0.006056284
42	0x3c48c36e	0.012253625
43	0x3ca3694c	0.01994767
44	0x3ce9eb6f	0.028554646
45	0x3c7c0eb6	0.015384367
46	0x3cdd9194	0.027046956
47	0xbd011794	-0.031516626
48	0x3d1b9242	0.03798128
49	0x3ce737bd	0.02822482
50	0x3d1ab1fd	0.0377674
51	0x00000000	0.0
52	0x00000000	0.0
53	0x00000000	0.0
54	0x3d897637	0.06712001
55	0x00000000	0.0
56	0x3da0feb4	0.07861081
57	0xbcfdf623	-0.031001156
58	0x00000000	0.0
59	0xbc4cd352	-0.012501555
60	0x00000000	0.0
61	0x00000000	0.0
62	0x00000000	0.0
63	0x3c575da1	0.013144881

encoder1.lin.weight f4 [64, 2]
0	0x3e4b09b1	0.19827916
1	0x3de7b915	0.113145985
2	0xbdc2d1ba	-0.095126584
3	0x3dd7fe86	0.10546593
4	0x3e1f6fd1	0.15569998
5	0x3e9616c9	0.2931426
6	0xbe1a8460	-0.1508956
7	0xbe67ecbf	-0.22648905
8	0x3d03c088	0.032166034
9	0x3e94b307	0.29042837
10	0x3c550797	0.013002298
11	0xbea4dfc1	-0.3220196
12	0xbe4830b9	-0.19549836
13	0xbe965512	-0.29361778
14	0x3e80bd2a	0.2514432
15	0x3e69d6a7	0.2283579
16	0xbd476811	-0.04868323
17	0x3ea8420a	0.32862884
18	0x3e924605	0.28569046
19	0x3e8c4d28	0.27402616
20	0xbd0a1f3e	-0.0337212
21	0x3d747755	0.059684116
22	0xbcbb5ac9	-0.022870438
23	0x3d242892	0.040077753
24	0x3e0478a8	0.12936652
25	0x3eb2c545	0.3491613
26	0x3e550acf	0.20804904
27	0x3e643cfa	0.22288886
28	0xbcad6c0d	-0.021169687
29	0xbdc01fb2	-0.093810454
30	0x3dbd09b2	0.09230365
31	0xbe32f334	-0.17475587
32	0xbc320474	-0.0108653195
33	0x3e8907b8	0.267637
34	0x3daef65d	0.08543084
35	0x3df98fc7	0.121856265
36	0xbdb8ded3	-0.09026875
37	0xbdff956f	-0.12479674
38	0x3e77fe5c	0.24218124
39	0xbe5f23df	-0.21791027
40	0xbe7ebf7b	-0.24877732
41	0xbe08c512	-0.13356426
42	0xbd91a61e	-0.071117625
43	0x3d18c3f2	0.037296243
44	0x3d8493ea	0.06473525
45	0xbe3d7d35	-0.18504794
46	0x3d4656b7	0.04842254
47	0x3ddd347e	0.10801028
48	0xbe74c434	-0.2390297
49	0xbe85fd28	-0.26169705
50	0x3e286eef	0.16448568
51	0xbdb62ed3	-0.0889565
52	0x3e45fb25	0.19334085
53	0x3d672d68	0.056439787
54	0xbdb0da49	-0.086353846
55	0xbe0bfd29	-0.13670792
56	0x3e00e649	0.12587847
57	0x3e866275	0.26246992
58	0x3d7c76f5	0.061636884
59	0x3e3b8fc0	0.18316555
60	0xba79092f	-0.00094999647
61	0x3e8dc30f	0.2768788
62	0xbe7ddc6f	-0.2479112
63	0xbc3563ea	-0.011071185
64	0xbe0faf80	-0.14031792
65	0xbe1db505	-0.15401085
66	0x3e0534e0	0.13008451
67	0xbe25d527	-0.16194592
68	0x3d8fadab	0.070155464
69	0xbe8da734	-0.27666628
70	0x3e911a78	0.28340507
71	0xbe1b8fee	-0.15191624
72	0x3e5013f3	0.2032011
73	0x3eaca060	0.33716106
74	0xbdeeebba	-0.11666055
75	0x3e22302d	0.1583869
76	0xbc03a37a	-0.008034581
77	0x3c087ef1	0.008331046
78	0x3dbcee12	0.09225096
79	0x3e3423b6	0.17591748
80	0x3e5ffa33	0.21872787
81	0xbe17284c	-0.14761466
82	0x3e1928fd	0.14957042
83	0x3e92db1a	0.28682786
84	0x3ad3bc91	0.001615422
85	0x3e3f6ef0	0.18694663
86	0x3e7650e7	0.240543
87	0xbe9343cf	-0.2876267
88	0x3e96651e	0.2937402
89	0xbebbdada	-0.36690408
90	0x3d8228c9	0.063554354
91	0xbe7bbe8b	-0.24584405
92	0x3cd00682	0.025393728
93	0xbe584cb4	-0.2112301
94	0x3c2acb02	0.010424377
95	0x3d079e17	0.03310975
96	0x3e92a709	0.28643063
97	0x3e85d1ab	0.26136526
98	0x3ea76403	0.3269349
99	0xbe310dd2	-0.17290428
100	0x3e3fb592	0.18721607
101	0xbe806b56	-0.2508189
102	0xbe337fa4	-0.1752916
103	0xbe4b22d0	-0.19837499
104	0xbe863e97	-0.26219627
105	0xbe86cd59	-0.26328543
106	0xbe80a01a	-0.25122148
107	0x3d488a13	0.048959803
108	0x3d452820	0.04813397
109	0xbed0bb06	-0.40767688
110	0xbe6d6c75	-0.23185904
111	0xbe8317b5	-0.25604025
112	0x3d9ce76c	0.07661328
113	0x3e61c991	0.22049548
114	0x3dfc8d21	0.12331606
115	0xbeb9a719	-0.36260298
116	0xbe754ee5	-0.23955877
117	0xbca1cc6c	-0.019750796
118	0xbdefa8ff	-0.11702155
119	0xbe684e28	-0.22686064
120	0xbe381f97	-0.179808
121	0x3d560779	0.05225322
122	0xbe21b6fd	-0.1579246
123	0xbe16c7c9	-0.1472465
124	0xbe7476be	-0.23873422
125	0xbd9a4824	-0.07533291
126	0x3e1fc300	0.1560173
127	0x3dc038d0	0.09385836

encoder2.bias f4 [32]
0	0xbd19f136	-0.037583552
1	0x3d1a4871	0.03766674
2	0xbcfc2f7a	-0.030784357
3	0xbb2b979f	-0.0026182903
4	0xbd16ddb2	-0.03683252
5	0x3d0c2654	0.03421624
6	0xbb308432	-0.0026934263
7	0x3c42189e	0.0118466895
8	0xbd0fce3d	-0.035108794
9	0x3c10113f	0.008793174
10	0x3d2930c0	0.041306257
11	0xbd2091e8	-0.039201647
12	0x3d02ec13	0.03196342
13	0xbc54a133	-0.012977886
14	0xbd24fc4c	-0.04027967
15	0x3d1ddcb6	0.038540564
16	0xbc4a0905	-0.012331252
17	0xbcb48784	-0.022037275
18	0xbd21b298	-0.03947696
19	0x3cb3758d	0.021906639
20	0xbd229aa7	-0.03969827
21	0x3cebb306	0.028771888
22	0xbc872c0b	-0.016500494
23	0xbd1c1405	-0.03810503
24	0xbd073f37	-0.03301927
25	0x3c07df6d	0.008293015
26	0x3c49df5a	0.012321318
27	0x3d0a20ee	0.03372281
28	0xbd1e6836	-0.038673602
29	0x3d24a2a0	0.040194154
30	0x3c4e7826	0.012601888
31	0x3d12f047	0.035873678

encoder2.lin.weight f4 [32, 64]
0	0xbd90ff78	-0.07079977
1	0x3e65f36c	0.2245614
2	0xbe818a5a	-0.25300866
3	0xbe68b9ae	-0.22727081
4	0x3dde4dce	0.10854684
5	0x3e7b9885	0.245699
6	0xbe3b286c	-0.18277138
7	0xbe82e9e4	-0.2556907
8	0xbd777401	-0.060413364
9	0x3d83526a	0.064122036
10	0xbda09ac1	-0.07842017
11	0xbe346261	-0.17615654
12	0xbe2804ea	-0.16408125
13	0xbe3cd8a6	-0.1844202
14	0xbe5d26c7	-0.21596824
15	0x3e1e09a2	0.15433362
16	0x3e4f16a9	0.20223488
17	0xbc48b72b	-0.012250702
18	0xbe762202	-0.2403641
19	0x3e4bc7d1	0.19900443
20	0xbe177e38	-0.14794242
21	0xbe4e1ba4	-0.20127732
22	0xbddeb02d	-0.108734466
23	0xbe84f2a8	-0.25966382
24	0xbe3c2890	-0.18374848
25	0xbdac8655	-0.08424059
26	0x3dd5b7c0	0.10435438
27	0xbe375dc8	-0.17906868
28	0xbe71a215	-0.23596986
29	0xbe5177d7	-0.20455872
30	0x3df470cf	0.11935579
31	0x3ca083f0	0.019594163
32	0xbdecd774	-0.11564532
33	0x3dd595be	0.10428952
34	0xbe668d4b	-0.22514836
35	0xbe6054e2	-0.2190738
36	0xbe5b2f03	-0.21404652
37	0x3bcdd980	0.0062820315
38	0x3e5010a0	0.20318842
39	0xbd6594aa	-0.05604998
40	0x3c331145	0.01092941
41	0xbe33ac1c	-0.17546123
42	0xbe09e9ef	-0.13468145
43	0xbe2267c3	-0.15859894
44	0xbe08b5a1	-0.13350536
45	0xbe585a22	-0.21128133
46	0xbd577d8c	-0.052609965
47	0xbd176197	-0.036958303
48	0xbcfdc836	-0.030979257
49	0xbe5b26ce	-0.21401522
50	0xbde334a9	-0.110940285
51	0xbe2104da	-0.15724507
52	0x3e231354	0.15925342
53	0x3d662ee0	0.056197047
54	0xbd8dd21f	-0.06924843
55	0xbe70324c	-0.23456687
56	0xbcf95765	-0.03043718
57	0x3e589efb	0.21154396
58	0xbe4ef59e	-0.20210883
59	0x3e6bedca	0.23039928
60	0x3e04913a	0.12946025
61	0x3dba77d4	0.09104887
62	0xbddf6b78	-0.1090917
63	0x3e4b0203	0.19824986
64	0x3e01353d	0.12617965
65	0x3e134df2	0.14385203
66	0x3d920ac7	0.07130962
67	0x3dfd0660	0.123547316
68	0x3e5557b7	0.20834242
69	0xbd923fe3	-0.07141092
70	0x3e055d0a	0.13023773
71	0xbe537def	-0.20653509
72	0xbe2754a4	-0.16340882
73	0x3e375bf6	0.17906174
74	0x3d5bc1b5	0.05365153
75	0xbe38ed8b	-0.18059365
76	0xbd11d632	-0.035604663
77	0x3e8c3d31	0.27390435
78	0x3ced08ff	0.028934954
79	0x3c73a555	0.014870961
80	0xbeaf6dbe	-0.34263414
81	0x3e6b4c90	0.22978425
82	0xbc2581e0	-0.010101765
83	0x3e53abcf	0.20671009
84	0x3e0d2968	0.13785326
85	0x3cf9ce40	0.030493855
86	0xbe5adbef	-0.2137296
87	0xbe259c4c	-0.16172904
88	0xbd876e38	-0.066128194
89	0x3e532d1f	0.20622681
90	0xbd9e1214	-0.07718292
91	0x3d8cabb8	0.0686869
92	0x3b88ff50	0.0041808262
93	0x3e15c674	0.14626485
94	0x3d045a15	0.03231247
95	0x3e4d3e74	0.20043355
96	0xbe5fe20a	-0.21863571
97	0x3e1dc63a	0.15407649
98	0xbe00a117	-0.12561451
99	0x3e01d1d3	0.12677698
100	0xbe3c4172	-0.1838434
101	0xbe015730	-0.12630916
102	0xbd860a44	-0.06544927
103	0x3e345215	0.17609437
104	0xbdcc5277	-0.099766664
105	0x3dd7f448	0.1054464
106	0x3d8bd219	0.06827182
107	0x3dd19978	0.1023435
108	0xbe02b331	-0.12763669
109	0x3e870bbc	0.2637614
110	0x3e5a3c8d	0.21312161
111	0x3be60e8d	0.0070207776
112	0x3e0482eb	0.12940566
113	0xbda87f44	-0.08227399
114	0xbdec807e	-0.115479454
115	0xbe0a7cde	-0.13524196
116	0x3e19e7be	0.15029809
117	0xbab01a00	-0.0013435483
118	0x3df71f8d	0.12066565
119	0x3e2d18ea	0.16904035
120	0xbce1f21c	-0.027581267
121	0xbd7d8cf1	-0.06190199
122	0xbe39a7e6	-0.18130454
123	0x3e5a2726	0.21303996
124	0x3d4ca0d8	0.04995808
125	0x3d528020	0.05139172
126	0x3e6b1ece	0.2296097
127	0xbb8472a8	-0.0040419884
128	0xbe0b0cba	-0.13579074
129	0x3e3eae92	0.18621281
130	0x3d2d582f	0.042320427
131	0x3d03e6a0	0.032202363
132	0xbe8c1f78	-0.2736776
133	0x3de2054d	0.11036167
134	0xbe395f84	-0.18102843
135	0x3e2ce207	0.16883098
136	0xbe93188a	-0.2872966
137	0xbdf52c30	-0.11971319
138	0xbe765009	-0.24053968
139	0x3db63d20	0.088983774
140	0xbe23b926	-0.15988597
141	0xbc94954d	-0.018137598
142	0xbd1899a8	-0.037255913
143	0x3d8d3dfa	0.06896587
144	0xbdd87b50	-0.10570395
145	0xbe839acf	-0.25704047
146	0x3dfceee8	0.12350255
147	0xbcb4ff2e	-0.022094335
148	0xbe43f7f4	-0.19137555
149	0xbe439358	-0.19099176
150	0xbe57350a	-0.21016327
151	0x3dae3357	0.08505886
152	0xbe4d99fe	-0.20078275
153	0xbd981ecc	-0.07427749
154	0xbdc32691	-0.0952884
155	0xbe205a46	-0.15659437
156	0xbda68374	-0.081305414
157	0x3e32e183	0.17468838
158	0xbe1678f2	-0.14694574
159	0x3e0d25e8	0.13783991
160	0xbdda9cc8	-0.10674435
161	0xbe7c2f40	-0.246274
162	0x3e5122d1	0.20423438
163	0xbe57676a	-0.21035543
164	0x3dc0b61f	0.09409737
165	0x3e237d9c	0.15965885
166	0xbda77bde	-0.08177923
167	0xbd967612	-0.07346739
168	0xbdc0779f	-0.09397816
169	0x3b3df646	0.0028985902
170	0xbe3c3222	-0.18378499
171	0xbce2a00b	-0.027664205
172	0xbe481edd	-0.19543023
173	0x3e105395	0.14094384
174	0x3e5a8bef	0.21342443
175	0xbded8bc6	-0.11598925
176	0x3d83f332	0.0644287
177	0xbd2cd355	-0.04219373
178	0xbe5fbc9f	-0.21849297
179	0x3c82a2a0	0.015946686
180	0x3e13bdce	0.14427873
181	0x3df7a43c	0.12091872
182	0x3dec5bd4	0.11540952
183	0xbdd565bc	-0.10419795
184	0xbe873ea0	-0.26414967
185	0xbbd31544	-0.006441744
186	0x3ca4ef10	0.020133525
187	0xbe23331e	-0.15937468
188	0xbe35df80	-0.1776104
189	0x3da959ec	0.08269104
190	0xbdf45524	-0.11930302
191	0xbd0e17d5	-0.034690697
192	0x3e31476e	0.17312405
193	0x3c847b80	0.01617217
194	0x3e184661	0.14870597
195	0x3dd63b30	0.10460508
196	0xbd60af26	-0.054854535
197	0x3e22e814	0.15908843
198	0x3d581db0	0.052762687
199	0x3ce60184	0.028076895
200	0x3cb6576a	0.02225848
201	0x3d95649b	0.072945796
202	0xbe3642c2	-0.17798904
203	0xbe79e073	-0.24402027
204	0xbe718614	-0.23586303
205	0xbe7345d0	-0.237571
206	0x3e32c9d9	0.17459811
207	0xbdbda028	-0.09259063
208	0x3e1cc4a8	0.15309393
209	0x3e491b94	0.19639426
210	0xbb343200	-0.0027495623
211	0x3d2bf1db	0.0419787
212	0x3d1a6658	0.03769526
213	0x398fd000	0.00027430058
214	0xbe715080	-0.23565865
215	0xbe277eeb	-0.16357009
216	0x3e3f10b0	0.1865871
217	0xbe72a84d	-0.23697014
218	0x3d556223	0.052095544
219	0xbe2ec5f4	-0.170677
220	0x3e5b3547	0.21407042
221	0x3e4af0c1	0.19818403
222	0x3dbad1e9	0.091220684
223	0x3e4389ce	0.19095537
224	0x3c2f8dc0	0.010714948
225	0x3d9d6bc8	0.07686573
226	0xbe728480	-0.23683357
227	0xbc8fe16d	-0.017563546
228	0xbe464106	-0.19360742
229	0x3dbf61d4	0.09344831
230	0xbc6c4ebd	-0.01442307
231	0x3e25692c	0.16153401
232	0xbe4aeb89	-0.19816412
233	0xbd5df432	-0.05418796
234	0xbd8455d0	-0.0646168
235	0x3d6a3834	0.057182506
236	0xbe612f96	-0.21990809
237	0x3dad3e06	0.08459096
238	0x3db7af22	0.08968951
239	0xbdcc6b16	-0.099813625
240	0x3dca74d1	0.09885562
241	0xbe4fda92	-0.20298222
242	0xbe0f6779	-0.14004315
243	0xbe08063a	-0.13283625
244	0xbcf000c0	-0.029297233
245	0x3daeb0e4	0.08529833
246	0x3dca9102	0.09890939
247	0x39bb4800	0.00035721064
248	0x3e818bfd	0.25302115
249	0xbe07d468	-0.1326462
250	0x3e33f2e2	0.17573121
251	0x3e855295	0.26039568
252	0xbdf3fbc0	-0.11913252
253	0xbe3c820c	-0.18408984
254	0xbc58fbc0	-0.013243616
255	0x3e303dac	0.17211026

decoder.0.weight f4 [64, 32]
0	0x3ddec3c6	0.108771846
1	0xbe153e6b	-0.14574592
2	0x3cc8f1e5	0.024529407
3	0x3c9cc0d1	0.01913491
4	0x3d001bdd	0.031276572
5	0x3e077de4	0.13231617
6	0xbe34ced9	-0.17657031
7	0xbe2c808a	-0.16845909
8	0x3d9a5bd8	0.07537049
9	0xbdd084cb	-0.10181578
10	0x3d9807d7	0.0742337
11	0xbd568e7b	-0.052381974
12	0xbc6f145d	-0.014592257
13	0x3b4a70c7	0.0030889974
14	0x3a96b223	0.0011497181
15	0x3d58ed0f	0.05296045
16	0x3c8a9b27	0.016919686
17	0xbd984280	-0.07434559
18	0xbd3f371e	-0.046683423
19	0xbdf778ac	-0.12083563
20	0x3d44b8d4	0.04802783
21	0x3e0c5078	0.13702571
22	0x3cd2d8c2	0.025738124
23	0x3d6780dd	0.056519378
24	0x3dc77205	0.097385444
25	0x3d2f1aba	0.042750098
26	0xbdc0af3f	-0.094084255
27	0x3df8e608	0.1215325
28	0xbdda6dc4	-0.106654674
29	0xbe2dc3c2	-0.16969207
30	0xbc4042ea	-0.011734704
31	0x3de1099f	0.10988163
32	0xbd12d128	-0.035844
33	0xbe103823	-0.14083914
34	0xbe2e3d21	-0.17015506
35	0x3d99f655	0.07517687
36	0x3dfeebcd	0.12447319
37	0x3d67357a	0.056447484
38	0x3d70c701	0.058783535
39	0xba8084f9	-0.0009805254
40	0xbe1662d8	-0.14686143
41	0xbdc3b021	-0.09555078
42	0xbc61894d	-0.013765645
43	0x3d648bd9	0.05579743
44	0x3c49d2ca	0.012318322
45	0xbdb4e9f8	-0.088336885
46	0x3cc7cfc0	0.024391055
47	0xbe0085cb	-0.12551038
48	0x3e34ac39	0.17643823
49	0x3c407fc6	0.011749214
50	0x3d9dce83	0.077054046
51	0x3c60ecad	0.013728303
52	0x3ca8018c	0.02050855
53	0x3de4ca4e	0.11171399
54	0xbcad9d10	-0.021193057
55	0x3db6d891	0.089280255
56	0xbd3943af	-0.045230564
57	0xbcacc182	-0.021088365
58	0xbb74c49f	-0.003734864
59	0x3c2f2916	0.010690948
60	0xbd1a75eb	-0.03771011
61	0xbe2bc0c7	-0.16772757
62	0xbb8b4fa3	-0.004251437
63	0xbcec195e	-0.02882069
64	0x3da892b7	0.08231109
65	0x3de5d450	0.11222136
66	0x3e284860	0.16433859
67	0x3d34b63a	0.044119097
68	0x3d092122	0.033478864
69	0xbd854033	-0.06506386
70	0x3ddff651	0.10935653
71	0x3d8d5d63	0.06902578
72	0xbca39d28	-0.019972399
73	0x3c68311b	0.014171864
74	0xbda1498e	-0.078753576
75	0x3e27cbb1	0.16386296
76	0xbc727e92	-0.0148006845
77	0xbae2217c	-0.0017252411
78	0xbde22e92	-0.11044039
79	0x3dac3c70	0.08409965
80	0x3d4323fa	0.04764173
81	0x3df282b4	0.11841336
82	0xbdb4dc85	-0.08831123
83	0x3e1d97fb	0.15390007
84	0x3d89783d	0.06712387
85	0x3dec2dfe	0.1153221
86	0x3e3d7082	0.1849995
87	0xbe142e09	-0.14470686
88	0xba634165	-0.00086691073
89	0x3e069d92	0.13146046
90	0x3b95c8de	0.0045710644
91	0xbc3ab98f	-0.01139678
92	0x3d5c67a8	0.05380979
93	0xbd08ddef	-0.033414777
94	0xbddc74e7	-0.10764485
95	0xbcf3d2c9	-0.029763596
96	0xbe28482c	-0.16433781
97	0x3db15a69	0.086598225
98	0x3d7976ec	0.06090443
99	0x3d1911b1	0.037370387
100	0x3cc19e32	0.023635004
101	0x3d0c5ba7	0.034267094
102	0x3dc2d350	0.09512961
103	0xbd436e75	-0.047712762
104	0x3c9a0d61	0.018805208
105	0xbc673dd4	-0.014113862
106	0xbe073fed	-0.1320798
107	0xbe09ecc9	-0.13469233
108	0x3e16586e	0.14682171
109	0xbdad4d7e	-0.08462046
110	0x3e13d185	0.14435394
111	0xbd9fdc53	-0.078056954
112	0x3dcbeba0	0.09957051
113	0xbbe6b8a1	-0.0070410524
114	0x3e026127	0.12732373
115	0xbd47a06b	-0.04873697
116	0x3dfe043c	0.124031514
117	0xbd800ab8	-0.062520444
118	0xbd828849	-0.063736506
119	0x3dbbd08b	0.09170636
120	0xbe206eab	-0.15667216
121	0x3d8e34f9	0.069436975
122	0xbe07bf36	-0.13256535
123	0x3cff5394	0.031167783
124	0x3e104ac7	0.14091025
125	0xbe213267	-0.15741883
126	0xbdb410c4	-0.0879226
127	0xbe2117da	-0.15731755
128	0xbce69d8a	-0.028151292
129	0xbc6aed60	-0.014338821
130	0x3d0994bf	0.03358912
131	0x3dcd67e2	0.1002958
132	0x3e21990d	0.1578104
133	0x3cdbb7b1	0.02682099
134	0x3de9ad69	0.114100285
135	0x3d4cb1ce	0.049974255
136	0x3db49b1b	0.088186465
137	0xbdbf7737	-0.0934891
138	0xbba5d190	-0.005060382
139	0xbca8009f	-0.020508109
140	0xbe0a91a3	-0.13532118
141	0x3de5cd24	0.11220768
142	0xbd3196d0	-0.043356717
143	0xbe07a30c	-0.13245791
144	0xbe2fbf94	-0.17162925
145	0x3d2bdf25	0.041960854
146	0x3d396277	0.04525992
147	0xbdb6e94e	-0.08931218
148	0x3ccbff32	0.02490196
149	0xbe293d92	-0.16527393
150	0xbdf01706	-0.11723141
151	0x3df685b3	0.1203722
152	0xbe21ffd0	-0.15820241
153	0x3d977954	0.073961884
154	0x3e20b220	0.1569295
155	0xbe110840	-0.14163303
156	0xbe2003d1	-0.15626456
157	0x3c6a707c	0.014309045
158	0x3e0b9574	0.1363123
159	0xbb8f8f58	-0.0043811016
160	0x3cff60fb	0.031174174
161	0xbd0e0936	-0.034676753
162	0x3dd3d092	0.10342516
163	0xbe422056	-0.18957648
164	0xbdd06555	-0.101755776
165	0xbd0aed38	-0.033917636
166	0x3e16652c	0.14687032
167	0x3e2599b7	0.16171919
168	0x3df4620e	0.11932765
169	0xbd31fb77	-0.043452706
170	0x3da08916	0.07838647
171	0x3ce0ed6f	0.027456967
172	0xbe2fd55c	-0.17171234
173	0x3cf168c4	0.029468901
174	0xbd649591	-0.0558067
175	0x3e5841ab	0.211188
176	0x3ccbc858	0.024875805
177	0x3e5771d5	0.21039517
178	0xbdf10b62	-0.11769749
179	0xbd815100	-0.06314278
180	0xbe180fd7	-0.14849792
181	0x3e240c62	0.16020349
182	0xbe4235cc	-0.18965834
183	0xbdaaee91	-0.08346284
184	0x3dc1697a	0.09443946
185	0xbdc0c628	-0.09412795
186	0xbc98d74c	-0.018657349
187	0xbd7115f7	-0.058858838
188	0xbe108974	-0.14114934
189	0xbcf9d84a	-0.030498642
190	0x3cb0bee0	0.021575391
191	0xbd93ac41	-0.07210589
192	0xbe273f3a	-0.16332713
193	0xbe023cb9	-0.12718476
194	0x3dc80342	0.097662464
195	0xbcd583ed	-0.026063884
196	0x3de82950	0.11336005
197	0x3e4bc54d	0.19899483
198	0xbd4f9c98	-0.05068645
199	0xbde03414	-0.10947433
200	0xbd94b93f	-0.072618954
201	0x3e4840a4	0.19555908
202	0x3e155b9a	0.14585724
203	0xbca397ac	-0.019969784
204	0xbe3ab97b	-0.18234818
205	0xbcfc2c2e	-0.030782785
206	0xbe1d6fa7	-0.15374623
207	0x3c841a48	0.016125813
208	0x3e49db74	0.19712621
209	0xbdb0f9ba	-0.086413816
210	0xbe4d5ccb	-0.20054929
211	0x3e59faa7	0.21287023
212	0xbe37502b	-0.17901675
213	0x3e4871e9	0.19574703
214	0xbdd1ef00	-0.10250664
215	0xbe218dc5	-0.15776737
216	0x3cc959b5	0.024578908
217	0x3da1a76d	0.07893262
218	0x3e50aeb7	0.20379148
219	0x3e0f4271	0.13990189
220	0xbe35147f	-0.176836
221	0x3e288204	0.16455847
222	0xbdaa821c	-0.08325598
223	0x3e3b8063	0.18310694
224	0x3c38e8b1	0.011285947
225	0xbca37568	-0.019953445
226	0xbdf1994b	-0.117968164
227	0xbdaaf5cc	-0.08347663
228	0x3e0468d7	0.12930618
229	0x3db39c71	0.08770073
230	0x3e1bc5df	0.152122
231	0xbdf9f58a	-0.12205036
232	0x3e06a4e7	0.13148843
233	0x3d1cb8bc	0.038262114
234	0x3da68451	0.08130706
235	0xb9ca1bf0	-0.00038549257
236	0x3e1d1922	0.15341619
237	0x3e0f7aa9	0.14011635
238	0xbd3aad7b	-0.0455756
239	0xbe0cc113	-0.13745527
240	0xbe0431d6	-0.12909636
241	0x3c232bcc	0.009959172
242	0xbe0ef0e5	-0.13959081
243	0xbe0c6728	-0.13711226
244	0x3dd39688	0.10331446
245	0x3b4cf7c9	0.003127562
246	0xbd14bf32	-0.03631515
247	0xbdbf7538	-0.093485296
248	0x3ce51dde	0.027968343
249	0xbe3193f4	-0.17341596
250	0xbcf53ca2	-0.029936139
251	0x3cc9eea9	0.024649935
252	0x3d803944	0.062609226
253	0xbe3d7557	-0.18501793
254	0xbe257b82	-0.16160396
255	0x3c01fb00	0.007933378

decoder.0.bias f4 [64]
0	0x3d2c4307	0.04205611
1	0xbd9b64a2	-0.075875536
2	0x3e1bc7a1	0.15212871
3	0xbd091feb	-0.033477705
4	0xbe2cc197	-0.16870724
5	0x3e0bb422	0.13642934
6	0x3d5c30de	0.05375754
7	0x3d9d2ce0	0.07674575
8	0xbe1a45bb	-0.15065663
9	0xbd9aee12	-0.075649396
10	0xbde8bec6	-0.11364512
11	0xbe2f0838	-0.17092979
12	0xbdd9a190	-0.10626519
13	0xbdb364df	-0.08759474
14	0xbdf87454	-0.12131563
15	0x3cabe7dc	0.020984583
16	0x3d470809	0.048591647
17	0xbc4233b4	-0.011853147
18	0x3e18345e	0.14863726
19	0xbdd9d3b6	-0.10636084
20	0x3d57faf5	0.052729566
21	0x3d79a8f1	0.06095213
22	0x3dcbea3f	0.09956788
23	0xbe33c5b6	-0.1755589
24	0x3da85f5d	0.08221314
25	0x3cdd3ebf	0.027007459
26	0x3a642d25	0.0008704237
27	0x3de03255	0.109471
28	0x3daf0616	0.08546083
29	0xbdfd9338	-0.123815954
30	0x3e347c8a	0.17625633
31	0x3dc12c65	0.09432296
32	0x3c4daa83	0.01255286
33	0xbd5927da	-0.05301652
34	0xbe00ba90	-0.12571168
35	0xbadf1df7	-0.001702248
36	0xbe14649e	-0.14491507
37	0x3d2ceace	0.042216115
38	0x3e422abd	0.18961616
39	0xbe2f2f5a	-0.17107907
40	0xbd88ab33	-0.06673279
41	0x3d238097	0.039917555
42	0xbc7f7026	-0.015590703
43	0xbc05883c	-0.008150157
44	0x3e49cbcb	0.19706647
45	0x3d6874ee	0.056752138
46	0xbc705ffb	-0.014671321
47	0xbd54cd7f	-0.05195379
48	0x3d44ca9f	0.048044797
49	0xbe2edc5f	-0.17076252
50	0x3c350a19	0.011049771
51	0x3e3f410e	0.1867716
52	0xbc2d26e3	-0.010568353
53	0xbe279432	-0.16365126
54	0x3d9896f3	0.07450666
55	0xbda99cac	-0.08281836
56	0xbe144095	-0.14477761
57	0xbde0c35b	-0.10974761
58	0xbe083c21	-0.13304187
59	0x3dabc283	0.083867095
60	0xbd1219f0	-0.035669267
61	0xbcc7de9a	-0.024398137
62	0x3b25568d	0.002522859
63	0x3dae30cb	0.085054

decoder.2.weight f4 [2, 64]
0	0xbd1b2f5c	-0.037886962
1	0xbd695c34	-0.056972697
2	0xbda6baa2	-0.08141066
3	0x3c84cb18	0.016210124
4	0x3b80ce20	0.003930822
5	0x3dbecaa5	0.09315995
6	0x3d406920	0.046975255
7	0xbca7f404	-0.020502098
8	0xbd1c8f88	-0.03822282
9	0x3dff7abb	0.12474581
10	0xbd6adfc0	-0.05734229
11	0xbdd4626a	-0.103703335
12	0xbd8aa3ea	-0.067695454
13	0xbde996f0	-0.11405742
14	0x3e0241f6	0.12720475
15	0x3e15cfcc	0.1463005
16	0x3e08da4b	0.13364522
17	0xbd2b5094	-0.041824892
18	0x3d9d85f0	0.07691562
19	0x3cf1a010	0.029495269
20	0xbd457da5	-0.048215527
21	0xbd79a1c7	-0.0609453
22	0x3e241185	0.16022308
23	0xbd91b031	-0.07113684
24	0xbdb8cf2b	-0.09023889
25	0x3db946e6	0.09046726
26	0x3e1dd642	0.15413764
27	0xbd80ff4f	-0.06298696
28	0x3d5223e6	0.051303767
29	0x3d794e60	0.06086576
30	0x3de613d4	0.11234251
31	0x3d5a3ad7	0.05327877
32	0xbda80dce	-0.08205758
33	0xbafe0a80	-0.0019381791
34	0x3da8e21a	0.082462505
35	0x3d929eda	0.07159205
36	0xbd62d0ac	-0.055374786
37	0xbde4d08a	-0.11172588
38	0x3ca652b0	0.0203031
39	0x3dd997b2	0.10624637
40	0xbd641a26	-0.055689
41	0x3d375d12	0.044766493
42	0x3b9c3055	0.004766504
43	0xbc1c641d	-0.009545353
44	0x3e233592	0.15938404
45	0xbdb36ea4	-0.087613374
46	0xbdc0d01a	-0.09414692
47	0xbd97f48e	-0.07419692
48	0xbd0f5a53	-0.03499825
49	0x3c5a6be3	0.013331386
50	0x3e225140	0.15851307
51	0x3ddaca56	0.10683124
52	0xbd4d5e2b	-0.050138634
53	0x3de3c3b2	0.1112131
54	0xbd8229f1	-0.06355656
55	0x3dd8da83	0.10588553
56	0xbdd3540c	-0.10318765
57	0x3c2eb860	0.010664076
58	0xbdf16664	-0.117871076
59	0xbdd7b95f	-0.105334036
60	0xbddd5474	-0.10807124
61	0xbd9ca0cd	-0.07647858
62	0x3e0ab05d	0.1354384
63	0x3c0dd7a2	0.008657368
64	0x3dadaa12	0.08479704
65	0x3d34ef98	0.044173807
66	0x3dbb51b5	0.09146444
67	0xbc92fd80	-0.017943144
68	0xbd47e3a8	-0.048801094
69	0x3d3e7077	0.046493974
70	0x3d04a124	0.03238024
71	0xbd15046f	-0.03638118
72	0xbdd7a160	-0.10528827
73	0xbb6afa51	-0.0035854767
74	0xbd85606a	-0.0651253
75	0xbd28ed75	-0.04124208
76	0xbbb83d00	-0.005622506
77	0xbd517708	-0.051138908
78	0xbe362d52	-0.17790726
79	0xbe1c9502	-0.15291217
80	0x3d43a1f1	0.04776186
81	0xbdf2a338	-0.11847538
82	0xbd5a0564	-0.053227797
83	0x3b3db980	0.0028949678
84	0xbdd9acef	-0.106286876
85	0x3cb2c0ef	0.021820514
86	0xbd2034f8	-0.039113015
87	0xbd4c708e	-0.049912028
88	0xbd8cc7f3	-0.06874075
89	0xbcc5a7cd	-0.024127865
90	0xbe0e8c54	-0.13920718
91	0xbd94ac66	-0.07259445
92	0x3e3cd09c	0.18438953
93	0x3dc306a6	0.095227525
94	0xbc0e9b7a	-0.008704061
95	0x3de29dde	0.11065267
96	0xbd5f2d25	-0.054486413
97	0xbbf92720	-0.007603541
98	0xbd53cb24	-0.051707402
99	0x3d85b23c	0.06528136
100	0x3d9f26e5	0.077710904
101	0x3db6a966	0.08919029
102	0x3e60e787	0.2196332
103	0x3de5ae6e	0.112149104
104	0x39ef9b8e	0.0004570153
105	0xbde07451	-0.109596856
106	0xbe342d58	-0.17595422
107	0xbdd2c846	-0.102921054
108	0x3dc67c90	0.09691727
109	0xbc78865d	-0.015168753
110	0x3d9bed46	0.07613616
111	0x3d0d4c08	0.034496337
112	0x3da9758e	0.08274375
113	0xbe64d89f	-0.2234826
114	0x3d93dbda	0.07219668
115	0x3dc2c986	0.09511094
116	0xbd3c373d	-0.045951117
117	0xbdf8f552	-0.12156166
118	0x3dd47db0	0.103755355
119	0xbcb45e1e	-0.022017535
120	0xbdc4c15f	-0.09607195
121	0x3dc5b578	0.09653753
122	0xbbd3a240	-0.0064585507
123	0x3dc00449	0.09375817
124	0xbd11fc8f	-0.03564125
125	0xbe08dc2b	-0.13365237
126	0xbcfd9cc5	-0.030958543
127	0xbe377b66	-0.17918167

decoder.2.bias f4 [2]
0	0xbd65d3e9	-0.056110296
1	0x3d1ca1be	0.038240187
