output/best_model.pt (torch, 98421 bytes, 29 tensors)

encoder.gat1.att f4 [1, 4, 32]
00000000: b866 0fbe c69d 59bd bda1 c43d 820c 3f3d
00000010: 9005 623e cdeb bdbe e503 54be 6301 643e
00000020: 5ec4 35be 7ca8 f7bd 3185 c43d e294 443e
00000030: b077 6a3e 5534 52be 852f 083c d921 b63d
00000040: 87c0 aabe 50da 203e aa0a 1fbe e491 bd3d
00000050: 4b70 87be a3ca 2c3e 232a cabe 2a4c 57be
00000060: dc50 6b3e 4b85 b03e e04d 353d c035 8dbe
00000070: 5796 78be 7342 35be 6684 6a3e 6506 b5be
00000080: 90c9 97be b8d0 b2be d727 773e e987 99be
00000090: 1e47 a8be 3c42 51be 2ca8 95bd bc8c b4bd
000000a0: 486f 86be d5f4 083e 489f dc3e 93ea 533e
000000b0: df99 793e 368d 233e 317d ae3e e19a 93bd
000000c0: 55c9 c73e c0d6 cabd ece0 1ebe 8b79 96be
000000d0: 8647 963d 2ebf eebe 5aa2 1bbe 11b1 ecbe
000000e0: e390 9f3c e979 a43e 118a a6be 247d 9c3e
000000f0: 1c2c 7c3e c0e5 b1be 11eb bb3e 75de bfbd
00000100: a096 c3be c0b6 30be ea0f a23d 8d0e 573b
00000110: d883 f3be 3860 c83e 3f6e 803e 1016 213e
00000120: 296a 463e 11f0 ee3e 9819 cbbd fa92 f23d
00000130: 46cf 9a3c 99b0 733e d1c2 c83c 5e21 463e
00000140: 5d2b da3d f9e2 75bd 6d56 1abe 8204 91bd
00000150: 6cf3 9c3e 2686 61bd 2bd0 f7bd 5c94 69be
00000160: e879 ca3e a0f9 ffbd fbdc a6be 00f4 d3be
00000170: 08c0 17be 66b6 423e 1d2d e4be 9e01 f4bd
00000180: f45a f43e 9ec5 023f 87f5 3ebe ce2f 913e
00000190: 7b79 a8be 79f2 513e 9fe2 56be 0ec0 503d
000001a0: 408f e33e b3df 363e add5 cbbe 52d7 9b3d
000001b0: 90d1 aa3e 2215 8c3e e650 edbd c290 f03d
000001c0: 02ce a23e 9ec1 873e f0bd 22be 7951 a03e
000001d0: af14 c23e 7e70 b63e 4c83 9fba ce2b debe
000001e0: ead0 89be 5c14 0abe d563 de3d 7d07 eebd
000001f0: ca5e f43c c53a adbe ae44 87be 4e8f d2be
-0.14004028 -0.05312898 0.09601162 0.046642788 0.22072434 -0.37093964 -0.2070461 0.22266154
-0.1775069 -0.12092683 0.09595717 0.1919742 0.2289722 -0.20527776 0.008312111 0.08893175
-0.33350012 0.1570828 -0.15531412 0.09256342 -0.2645286 0.16874175 -0.39485273 -0.21025148
0.22980064 0.34476694 0.04426372 -0.2758007 -0.242761 -0.1770113 0.22902068 -0.3535644
-0.29645967 -0.34924865 0.24136291 -0.29986504 -0.32866758 -0.20435423 -0.07307467 -0.088159055
-0.26256776 0.13374646 0.43090272 0.20694952 0.24375103 0.15971836 0.34079888 -0.07207275
0.39020792 -0.099042416 -0.15515488 -0.29389605 0.07337861 -0.46630234 -0.15198651 -0.4622884
0.019478267 0.3212426 -0.3252721 0.30564225 0.24626201 -0.34745598 0.3670278 -0.09368602
-0.38200855 -0.17257214 0.079131916 0.003281507 -0.47561526 0.3913591 0.2508411 0.15731072
0.19376434 0.4666753 -0.09916991 0.1184444 0.018897664 0.23797835 0.024506958 0.19348666
0.10652802 -0.06003091 -0.15072031 -0.07080938 0.30654466 -0.055059575 -0.12100252 -0.22810501
0.39546132 -0.12498784 -0.3259047 -0.41397095 -0.14819348 0.19014892 -0.4456567 -0.11914371
0.47725642 0.5108279 -0.18648349 0.28356785 -0.32905182 0.20502652 -0.20984887 0.050964408
0.4444523 0.17858772 -0.3981146 0.076094285 0.33363008 0.27359873 -0.11587696 0.1174636
0.31797796 0.26514906 -0.15892768 0.3131216 0.37906405 0.356327 -0.0012169867 -0.43392795
-0.269172 -0.13484329 0.10858885 -0.11622522 0.029830355 -0.338339 -0.26419586 -0.41124958

encoder.gat1.bias f4 [128]
00000000: 22e2 bebc d068 08bd 2118 bb3b ae66 f7bc
00000010: a574 b13c 556a 81bc a9b6 94bc 3ef6 b4bc
00000020: f682 bbbc b8ae cfbb a0ae e63c 1ffd 593c
00000030: 06d8 4bbb 562c 11bc daae 85bb 0158 ebbb
00000040: 677e 8c3b 379b 2c3c d264 c93a 41c6 963c
00000050: 59f8 a33a 5e3e 74bc 502a 2cbb 1626 97bc
00000060: 53e0 13bc 9249 c23b 17d5 c3bc 44a2 a93c
00000070: fe00 493c 4623 243c 2852 30bb 8d6d 1f3c
00000080: 5417 e1bc 71af 53bb 490a dd3c a1a1 b6bb
00000090: c973 983c 1a2f e23b 3755 53bc 71ec 6d3c
000000a0: f4f7 33bc fffd 90bb bdf1 a7bb 182a 723c
000000b0: 19fb 42bb a2c9 3c3b 9fd2 903c a8e2 d0bb
000000c0: 98e8 f1bc 1962 ad3b 015d 903b a18d cd3b
000000d0: a377 4d3b c43b f4bc 2a1d 1ebc ae5f c03c
000000e0: 1e54 d33b b95e d7bc 9213 2b3c b211 b3bb
000000f0: e9a5 e83b 99d5 913b 82eb 023c e7af 803c
00000100: d05d 183c 066a 20bc 8b06 8abc a23e af3c
00000110: cee9 a83c 1b16 133c ffba 1dbb 8aa5 403c
00000120: fa0a 743c e23d 203d f89d e6bc 1ea5 b2bc
00000130: eb01 4c3a 6cb7 52bb 0e7f cdbb b655 9bba
00000140: 7cd0 90bb 3f06 103d 13ef 013d fd8b 41ba
00000150: c5da 413c 8a95 06ba 95da e8bc 1af9 b0bb
00000160: 95ef afbc 0f0f 3f3d a8fb d33b 7c24 873c
00000170: f57a 0fbd 5572 39bb 980a 92bc 860e cd3c
00000180: b5d9 8d3c 157d 14bb 9bd7 4d3b bff6 babb
00000190: 0c56 f1bb 74f4 0b3d 4dcd 823b fdd4 c13c
000001a0: 5edf 8ebc d2d6 27bd 4cad 4c3c 8429 aabc
000001b0: b519 c9bc 96f4 9a3c 020d 483c c1a4 4d3c
000001c0: 893b cabb c9cf 803b cae8 a33d 4a1a 31bc
000001d0: 5214 d03b 9dd9 963c 4bef 013b 1641 4dbb
000001e0: 30a5 e2bb ccf8 a9bc ff9a 80bc 158c 87bb
000001f0: d8f9 07bd 3fd1 66bc bee9 3c3c b308 ae3c
-0.023301188 -0.033303082 0.0057096635 -0.030200329 0.021662066 -0.015797773 -0.018153505 -0.022090074
-0.022889595 -0.006337967 0.02815944 0.013304978 -0.0031104102 -0.008860668 -0.004079682 -0.0071821217
0.0042875293 0.010535053 0.001536513 0.018405082 0.0012509926 -0.014907448 -0.0026270337 -0.018450778
-0.009025651 0.0059291804 -0.02390532 0.020707257 0.012268303 0.0100181755 -0.0026904438 0.009730709
-0.027476944 -0.0032300616 0.026982443 -0.005573467 0.018609898 0.0069025876 -0.012898735 0.014521704
-0.01098441 -0.00442481 -0.005125253 0.014780544 -0.0029751717 0.0028806706 0.017678557 -0.006374676
-0.029529855 0.005291235 0.004405618 0.006272987 0.0031351827 -0.029813655 -0.009650508 0.023483124
0.0064492365 -0.026290284 0.010441678 -0.005464756 0.007099856 0.0044505117 0.00799072 0.015708877
0.00929971 -0.009790903 -0.016848823 0.02139217 0.0206193 0.008977438 -0.0024067757 0.011758218
0.014895195 0.039121516 -0.028151497 -0.02180725 0.0007782268 -0.0032152785 -0.0062712496 -0.0011851105
-0.0044193845 0.035162207 0.03172214 -0.00073832256 0.011831944 -0.00051339774 -0.02842454 -0.005400789
-0.021476546 0.04664522 0.0064692087 0.01649689 -0.03502937 -0.0028296907 -0.017827317 0.02503134
0.017315725 -0.0022657563 0.0031409028 -0.005705684 -0.007364994 0.034168676 0.003991759 0.023661131
-0.017440494 -0.040976353 0.012492489 -0.02077175 -0.02454839 0.018915456 0.012210133 0.012551487
-0.006171648 0.00393102 0.08003385 -0.01080949 0.0063500786 0.018414313 0.0019826468 -0.0031319312
-0.0069166645 -0.020748518 -0.015698908 -0.004136572 -0.033197254 -0.014087974 0.011530338 0.021244382

encoder.gat1.lin_l.weight f4 [128, 2]
00000000: dd50 33bd 3d28 48be 1b1f fe3d c83b adbc
00000010: 5f5e 543e e4ed dcbc 4bca ccbd 6d6a f53d
00000020: c574 bb3d 6437 393b 9de8 a0bd 0ea2 18be
00000030: 38d1 8fbd ab65 14be 1b89 9b3d 28d3 fb3c
00000040: 2e0b 34be 908b 943d 8eb0 17bc 0fda 033e
00000050: 9e19 3b3e 9a6c 0ebd 2fab b13a d580 c1bd
00000060: b822 1d3e ea44 3e3e 76e1 efbd ff79 be3d
00000070: 03de 2e3b 629d 513e 047d 293e 4753 15be
00000080: 3879 7d3d 254d a2bc 153b 39be b646 c13d
00000090: 7f8d 0abe 8d92 3abd 6eaa 473e bf0b 2dbe
000000a0: e409 1c3e c15f cdbd 1716 cabd a66c 34be
000000b0: 9d53 2f3d eb1a 4cbe d308 0ebe e96e 293e
000000c0: b9e4 e53d 8091 2b3e b7b9 2f3e 2fd6 ebbd
000000d0: 441b 8a3d 0591 b0bd e2fb d1bd 0e3a 4c3e
000000e0: bee6 763d 4ba9 a0bd e4e3 103d 9b39 263e
000000f0: 0294 003e dca5 573c 2f1a a93d a031 e7bd
00000100: 7669 1d3d 36e3 46be 97c0 26be 05cf e03c
00000110: 61fd ff3d 4fef 603d 15f9 d03c 1d00 ffbc
00000120: b747 11bd 1882 db3d 876d f33d 91d9 43bc
00000130: 39d2 02be 5f14 6e3e f0f5 e1bd 1f0c 4a3e
00000140: a6a7 1cbd 72ca 543e 3341 713d b1c1 c6bc
00000150: 9628 6b3d 9b5f 43be 762c 213e 7503 6bbd
00000160: 07ea b23d e049 303d 42f8 c7bd c103 e13d
00000170: 8bf3 f5bd e8df 8bbe 1557 233e fe3f 413d
00000180: d7c0 5c3d 28ce 45be 5841 233e 9da0 8bbc
00000190: ab29 09be d52d 173e 71af 28be dfb5 5b3e
000001a0: 6dfa a4bd 742b ee3c e6bd 663e 8f24 e33d
000001b0: 10cc 623d d00b 81bd 74b1 5bbd 1350 3b3e
000001c0: e3d0 4c3e 9a25 5abc 9d14 2d3e 673f 80be
000001d0: 32b8 f6b8 6f3b 1c3e 390c 2e3e 7fad dc3c
000001e0: 9b46 93bd 3e52 043e b613 cebd 81d2 ff3d
000001f0: d05a f9bb 70b3 32be 9ae8 26be 3c69 883d
00000200: 4e09 23be 4bb9 0a3e c5e7 85bd c3ba 14be
00000210: 5ca9 f23c 85c9 71bd 7687 f53c 53c1 6b3e
00000220: aff5 09bd c4b4 113e d755 c03d 53fe f8bd
00000230: 6018 36be 59df 0fbe eb79 d53c eded 2cbe
00000240: 3300 073e 6bad 513e 7db2 a5bd e41a efbd
00000250: adbc 5a3d 019f 81bd b8e7 6c3d f088 d0bd
00000260: 3c36 3b3e 97b9 17be 7ba3 2dbd 2081 323e
00000270: 1ff4 66bc 448a 5d3d b926 adbb 01f0 323d
00000280: a085 863d 6413 6ebe 5a6f c83d 7aeb 573e
00000290: b08d 453e 1118 c1bd 3187 3dbe e62d 473e
000002a0: daa9 2c3e f1a6 56be a9a3 283e 581f 9a3d
000002b0: f33c 8cbe 45e3 cd3b 6081 5d3e 3363 c63d
000002c0: 8267 c4bd 03b3 cabd 8554 f33c 61a4 713e
000002d0: e292 0c3e a8a2 42bd f4a3 55bb e4b4 233d
000002e0: bd0c 29be b360 2d3c d31c 673d 10b0 363e
000002f0: 534a 4b3e bddb b43d dbcb 343e ddfe 92ba
00000300: d14a 9dbd e8d5 5dbe c9dd f5bc e2f3 f0bd
00000310: e095 e7bc 5259 0a3e 043d 723e aa65 7ebe
00000320: ef6f c73d cf3c df3d d96e 953d 007e da3c
00000330: c2d5 77be 1bf7 b03b e942 f1bd 6747 0a3e
00000340: e908 263e e977 88be 9ff9 20be 827b e3bd
00000350: a6f1 7c3d 1d60 723e 92e6 e83d 6b1d 273e
00000360: 5b01 82bd 9069 b5bd 30fe 58bd ab31 39be
00000370: 83bd b73d 2fb5 adbd 4172 953d d9e7 5dbd
00000380: 2cd4 563d be42 0fbe 89c6 0c3e 2165 15be
00000390: d4b9 5b3e 58c3 cf3d 3f47 143d 6154 c93c
000003a0: fb9c 7f3d c736 83bd 27f2 28be 5bd3 11bd
000003b0: 0fb7 423e 1a9d 28bd 6edc 483d a43a 423e
000003c0: e5dc 9c3d 034c a2bd 0961 363e 0fc4 3e3e
000003d0: a5a9 173e 616f 2ebe 0143 083c 3d7d 08be
000003e0: 4bab 29be 5874 233d 41e8 0b3e 5135 5e3d
000003f0: 2888 2f3e e93a bb3d f68a 073e 79d8 853d
-0.04377829 -0.195466 0.12408277 -0.02114667 0.20739125 -0.026968904 -0.09999522 0.1198319
0.091531314 0.0028261775 -0.078568675 -0.14905569 -0.07022327 -0.14491908 0.0759451 0.030740336
-0.1758239 0.07253182 -0.0092584025 0.12876152 0.18271491 -0.03477154 0.0013555045 -0.09448401
0.15345275 0.18580976 -0.11712925 0.09300613 0.0026682622 0.20470193 0.16551596 -0.14582549
0.06188318 -0.019812176 -0.18088944 0.09437315 -0.13530539 -0.045549918 0.19498608 -0.16899012
0.15238148 -0.10028029 -0.098674946 -0.17619571 0.04280435 -0.19932143 -0.13870554 0.16546215
0.11225266 0.16754723 0.17160688 -0.11515462 0.06743482 -0.0862141 -0.10253121 0.19944021
0.060278647 -0.0784479 0.035373583 0.16232912 0.1255646 0.013162103 0.08256947 -0.11288762
0.038430654 -0.19422612 -0.16284405 0.027442465 0.124995 0.054915722 0.025509397 -0.031127984
-0.035468783 0.10718173 0.11886125 -0.011953727 -0.12775506 0.23249958 -0.11033237 0.19731186
-0.03824582 0.20780352 0.05890007 -0.024262281 0.057411753 -0.1907944 0.15739617 -0.057376344
0.087360434 0.043039203 -0.09764148 0.10987044 -0.12009343 -0.27319264 0.15951188 0.04718017
0.053894844 -0.19316924 0.15942895 -0.01704436 -0.13394801 0.14763577 -0.16473176 0.21456097
-0.080555774 0.029073454 0.22533378 0.110909574 0.05537039 -0.06301081 -0.05363603 0.18292265
0.20001559 -0.013314629 0.16902395 -0.25048372 -0.00011764503 0.15257047 0.1699685 0.026938198
-0.07191201 0.12921998 -0.10062353 0.12491322 -0.0076097026 -0.17451262 -0.16299668 0.06660697
-0.15921518 0.13547246 -0.06538347 -0.14524369 0.029621772 -0.059030075 0.02997182 0.23022966
-0.033681568 0.14229113 0.09391373 -0.121578835 -0.17782736 -0.14050044 0.026059112 -0.16887636
0.1318367 0.2047631 -0.080906846 -0.11675051 0.05340259 -0.06329156 0.05783817 -0.10182369
0.18282408 -0.1481689 -0.042392235 0.1743207 -0.014096289 0.05408694 -0.005284157 0.043685917
0.06568456 -0.23249584 0.097868636 0.21085921 0.1929233 -0.094284184 -0.18508603 0.19451103
0.16861668 -0.2096212 0.16468681 0.075255096 -0.2739025 0.006283196 0.21631384 0.096868895
-0.09590055 -0.09897425 0.029703388 0.23597862 0.13727906 -0.047518402 -0.0032598944 0.039967433
-0.16508766 0.010582137 0.056423973 0.178406 0.19852571 0.08830974 0.1765589 -0.0011214871
-0.07680286 -0.2166363 -0.030012982 -0.11765267 -0.028269708 0.13510635 0.23656088 -0.2484347
0.097381465 0.1090027 0.07296533 0.02667141 -0.24202636 0.005400551 -0.1178034 0.135038
0.16214336 -0.26653984 -0.15720223 -0.111075416 0.06175389 0.23669477 0.11372103 0.16319816
-0.06347915 -0.08858025 -0.052976787 -0.18085353 0.08971693 -0.08481824 0.07297183 -0.054176185
0.052448437 -0.13990304 0.1374761 -0.14589359 0.21457607 0.10144681 0.036200758 0.024576368
0.062405568 -0.06406932 -0.16498624 -0.035601955 0.19015144 -0.04116545 0.049038343 0.18967682
0.0765932 -0.07924654 0.17810453 0.18629478 0.14810808 -0.17034675 0.008316756 -0.13329025
-0.1656925 0.039905876 0.13662817 0.054250065 0.17141783 0.091420956 0.13236603 0.065354295

encoder.gat1.lin_l.bias f4 [128]
00000000: d03b 223f 664b f23d a525 b7be 1c6b 1b3e
00000010: 6e04 2abf 3248 263f 4d42 f8be c0f4 e6be
00000020: 7988 07bf 4722 69be 650f f6bb 0322 963e
00000030: 8014 fd3d c381 e33e 379d 14bf cae4 363f
00000040: 0e34 163f 73d3 0e3f 2160 d73e 2f26 c03e
00000050: a5e7 de3e 57dc fdbe 7d64 143f 6c6f 42bc
00000060: 8eb0 92bc 55e0 9fbe 9646 24bf 9f96 643e
00000070: 0e81 bbbd d763 9e3e 374c e23d b133 19be
00000080: fbc0 29bf bbfe f13e d748 fcbe 8b8a 183e
00000090: c593 d4be be61 20bf 01c5 08be 654d c0be
000000a0: d00d de3e 2e63 94bd 3705 f03e b191 27be
000000b0: 97d9 59bc 494e 94be 2620 663e 77a3 f53e
000000c0: 5683 023d ea38 c4be 0090 15bf 12ed 173f
000000d0: 0035 50be 1d97 03bc 3615 033f 0755 0ebf
000000e0: f965 2ebd 89d1 ca3e 4fec 66bd 1d49 033f
000000f0: 7bc2 0e3f 65a2 603e c45c b93e 6e65 cebd
00000100: a749 233f f721 d4be c1e6 153e 831a 083f
00000110: 7be9 813e 3e83 533e 395c 393e e37a 7dbe
00000120: 0f72 f63d 3120 343d c512 193f 1f79 223f
00000130: 39ef 0bbf 1cfb 04bd 6f2f 953e 355b abbe
00000140: e899 e53e 78d7 f0be e5e2 b03e 5c28 a73e
00000150: 7698 0bbf d6dd 07bf acdf 183f e3d7 efbd
00000160: e3c0 113f 3b50 4f3e 894f 1ebf a4ac 22be
00000170: 499d e43e 8c1c fabe 3364 5cbe 41bc 1a3f
00000180: 18ec 03bf 73b7 173f 5904 c2be bd9d db3e
00000190: 04e9 11bf 2203 a03e cb40 ea3e ffc9 053f
000001a0: f332 5d3e d861 103f 5586 dfbd a5e3 133f
000001b0: 46eb 073f a66a 8e3e f9dc 26be e09d a43e
000001c0: 4f2d aabe b1b8 a33e 5cc5 d6be 7fe8 ad3e
000001d0: f20d 1ebf 8082 eebe 79f5 0fbf 0f82 85be
000001e0: 9d86 7f3e 8e32 163f ef72 893e cbec 253e
000001f0: c54d bebc 7313 a23e b18a 71be c911 9ebc
0.63372517 0.11830787 -0.35770908 0.15177578 -0.6641301 0.6495391 -0.48488083 -0.45108604
-0.52942616 -0.22766982 -0.0075091594 0.29322824 0.12357426 0.44434938 -0.5805239 0.71442854
0.5867318 0.55791396 0.42065528 0.37529132 0.43536106 -0.49582168 0.5796583 -0.011867385
-0.017906453 -0.3122584 -0.64170206 0.22323082 -0.091554746 0.30935547 0.11049693 -0.14961125
-0.6631009 0.47264656 -0.49274322 0.148966 -0.4151899 -0.6264914 -0.13356401 -0.37559047
0.43369913 -0.072454795 0.4687898 -0.1636417 -0.013296506 -0.28965977 0.22473201 0.47976276
0.031863533 -0.38324672 -0.5842285 0.59346116 -0.20332718 -0.008031634 0.5120424 -0.5559849
-0.042577717 0.39612988 -0.056377705 0.51283437 0.55765504 0.21936949 0.36203587 -0.1007794
0.6378426 -0.41432163 0.14638807 0.53165454 0.25373444 0.20655534 0.18101586 -0.24753909
0.12033474 0.043976013 0.59794265 0.63466066 -0.546619 -0.03246604 0.2913775 -0.33468023
0.44843984 -0.4703939 0.34548107 0.3264798 -0.5452951 -0.5307287 0.59716296 -0.11711099
0.56934947 0.20245449 -0.6184011 -0.1588617 0.4465125 -0.48849905 -0.21522598 0.604435
-0.51532125 0.59264296 -0.37893942 0.42893782 -0.5699618 0.3125239 0.45752558 0.52261347
0.21601467 0.563993 -0.10914294 0.57769233 0.53093374 0.2781574 -0.16295232 0.321517
-0.33237693 0.31976846 -0.41947448 0.33966443 -0.6174003 -0.4658394 -0.56233937 -0.2607579
0.24953695 0.5867089 0.268455 0.1620361 -0.023230443 0.31655464 -0.23588063 -0.01929559

encoder.gat1.lin_r.weight f4 [128, 2]
00000000: 3c41 07be 36c0 033e 3153 dd3d 9864 e63c
00000010: 96c3 cf3d b94b f63d cbec a9bd 0770 11bd
00000020: 8cd3 f0bd 2230 de3d ac47 cdbd e781 56be
00000030: d166 b33d 6ad9 a0bd d494 45bc 99be a3bd
00000040: 90c1 6b3b 7890 293d 9407 d63d cdd5 3bbd
00000050: 2f77 40bc 5c5b 43be 40bd 58bd 5a88 403e
00000060: 3650 3bbe b4f1 a1b9 2f8d 10be b860 ac3b
00000070: 8723 95bb b73d 69be 69c0 27bd 468a 3ebd
00000080: f751 8c3c e5bd 07be 7fc5 2a3e 38b3 8ebc
00000090: 8d2d 17bd 8fed 5fbe 47f9 ea3d 81de 6cbd
000000a0: 3870 963d c5f3 a2bd e6c9 ca3c f0dd 36bd
000000b0: 2515 97bc 95fa 5f3e c524 51bd 52bc 03be
000000c0: e3aa 9abc 89b8 4ebe 220c c13d cf03 c7bc
000000d0: c786 583e 1a15 093d c946 973e 589c 813c
000000e0: d549 423d 7662 efbc 0f4e cd3d bbd9 023e
000000f0: 8705 863d 7540 c93c 585a ad3b 14bb 4dbe
00000100: b058 febd df9a 9b3d 7350 56be c1db 35be
00000110: f93c 8d3e bc42 273b 4d5c 253e f3f5 f63d
00000120: c319 43bd 0e5f c43d f363 3b3e cb0a 4d3e
00000130: f6f4 16bc 0a0a 213d 0320 313e a90f 14be
00000140: 0667 ccbd 824e e43c 8103 13bd 6911 1e3e
00000150: a5e4 41be 2a35 f93d 3b93 343d 1741 0f3e
00000160: 4970 be3b 1eb9 3dbe bfbb 4c3e aa06 233e
00000170: 96a7 a83d 64fe 0abe 8332 82be d506 16bc
00000180: ece8 a6bd d4d1 ca3c a376 84bc deae 20bd
00000190: 99b5 babd 7101 143e 10e3 ef3d 79f5 92be
000001a0: aa47 783e 1025 873d c44f 8d3e 801b 94bd
000001b0: b8bc cabd 94dd c33d 9bcb 14be beb7 d23d
000001c0: 8ad4 1e3e 7669 febd 6c1e b6bd 7bcd cc3b
000001d0: 7db7 b03c b20f 2ebe a590 d93d c91d f43c
000001e0: c6c9 bf3c c7ef b6bd eb70 ab3c f3ec cc3d
000001f0: fb21 b3bd e36f 303c ae60 6ebd e66b bd3c
00000200: 7d36 f6bd 776a 113d 35bb 2b3e ffec 3cbe
00000210: 9950 703e 506c 0e3e 1308 82bd 08f4 e53c
00000220: 071f 933e 140c c13d a41c 5d3d bec0 6cbe
00000230: 0edf 96ba e849 8fbc ab37 efbd 8e4a 623d
00000240: cbdc 75be 47c4 663e 0204 8c3e 32cb 50be
00000250: addc 1d3e bb62 e3bd 61cd c4bd 27bd 92bd
00000260: 4372 3f3d 5e1b d63d df72 b73b e4b6 523e
00000270: 2ffd 30be cd83 08be 2257 173e fbee 953d
00000280: 6341 84bd e53f 623c bd73 acbd c763 ed3d
00000290: c449 62bc 1c6d 46be c75c c53d ba12 abbd
000002a0: d320 aabb 6adc 1c3e d3a8 2dbe 2db1 8e3d
000002b0: 810d b83d 5c0a f03d 395e 563c 0e47 f5bc
000002c0: d136 4c3e ca8b bd3c f4a8 3d3d 74dc 70be
000002d0: 999b 3c3e df5d d73d 9714 95bd d647 2cbe
000002e0: d9a9 cfbd f3a1 8abe b8f9 03be 7f2a 493b
000002f0: d593 46bc 4ea5 213e cf04 24be 7398 0e3e
00000300: d222 253d 4c35 e6bd bf9e 26be 9f7a f63d
00000310: 0450 943b f1eb b6be bcc2 88bd fb9c 79bd
00000320: 619c 7c3d 4bd9 f3bd eab5 3ebd fc5f 213d
00000330: c1d9 113d 356b 903e 65fd 09be 5b7d 013d
00000340: 2e8b f43d eb4f 2e3c a53e f03d ea0a 08be
00000350: 82ef 39be 9464 26be c368 473d ba50 013d
00000360: 5729 383e 62a6 523d 1d61 0f3e f666 ae3d
00000370: dbd6 37be 69be 2e3e f1a0 ba38 6fe3 543d
00000380: 9b86 f43d 661c d0bc dff5 223d c4f1 c93d
00000390: bc2f 873e 3802 31bd 8afa b33d 8f5f 093e
000003a0: 628c 05be e427 5bbc e207 173d 45a7 23bc
000003b0: 1711 7fbd c19b 733d 9639 533e 24da 8c3d
000003c0: 6f52 e9bd fd56 8e3d 0337 773e 4dd4 73bd
000003d0: 4a92 e0bd 2d48 963c 199c 83be 556e 323e
000003e0: 166a e3bd 547a 0f3c 6e6c a1be 7276 9ebd
000003f0: 34ee 743e 3432 84be 27e6 6cbd 184b 1b3e
-0.13208479 0.12866291 0.10806883 0.028124139 0.10144727 0.12026162 -0.08297118 -0.03550723
-0.11759099 0.10849024 -0.10023436 -0.20947991 0.08759845 -0.078539684 -0.012059409 -0.07995338
0.0035973527 0.04139754 0.10450664 -0.045858193 -0.011747166 -0.1907782 -0.052914858 0.18802014
-0.18292317 -0.00030888396 -0.14116357 0.005260553 -0.0045513543 -0.22777449 -0.04095498 -0.046518587
0.017128928 -0.13256033 0.16676901 -0.017419443 -0.036908675 -0.21867965 0.11473327 -0.057829384
0.07345623 -0.079566516 0.024754476 -0.04464525 -0.0184427 0.21872933 -0.051060457 -0.12864807
-0.018880313 -0.20187582 0.09426142 -0.024293808 0.21145163 0.03346739 0.29546192 0.01582162
0.047433693 -0.029221755 0.10024654 0.1277837 0.06544023 0.024566868 0.005290311 -0.20090896
-0.124192595 0.07597899 -0.20929126 -0.1775961 0.2758558 0.0025521955 0.16148491 0.1205863
-0.04763199 0.09588443 0.18299846 0.20023648 -0.009213677 0.039316215 0.17297368 -0.14459099
-0.09980588 0.027869467 -0.035892013 0.15436329 -0.18934877 0.12168343 0.044085722 0.13989674
0.0058117253 -0.18527648 0.19993494 0.15920511 0.082350895 -0.13573605 -0.25429162 -0.009156902
-0.08149895 0.024758257 -0.016169852 -0.039229266 -0.09116668 0.14453675 0.117132306 -0.28702906
0.24246088 0.06598866 0.2759992 -0.07231808 -0.098992765 0.09563747 -0.14530794 0.10288952
0.15510765 -0.12422459 -0.08892521 0.006250081 0.021571869 -0.16998175 0.10623292 0.029799359
0.023411643 -0.08932453 0.020927867 0.10006132 -0.08746716 0.010768863 -0.05819767 0.023122739
-0.120221116 0.035501923 0.16770633 -0.18449782 0.23468246 0.13908505 -0.06349196 0.028070465
0.2873461 0.09426132 0.053982392 -0.231204 -0.0011510567 -0.017491296 -0.1168054 0.055246882
-0.24010007 0.22535811 0.27346808 -0.20390013 0.15416212 -0.11102816 -0.096094854 -0.07164984
0.046739828 0.104544386 0.0055984105 0.2057758 -0.17284082 -0.13331528 0.14779332 0.073209725
-0.06457784 0.013809179 -0.08420513 0.11591297 -0.013811532 -0.1937756 0.096368365 -0.08353181
-0.0051919012 0.15318456 -0.16958933 0.06967387 0.08986951 0.11720726 0.013083988 -0.029941108
0.19942786 0.023137946 0.046303704 -0.23521596 0.18418731 0.10515951 -0.07279318 -0.16824278
-0.10139818 -0.27076682 -0.12888229 0.0030695496 -0.012120207 0.15785715 -0.1601746 0.13925342
0.04031641 -0.11240634 -0.16271494 0.12035107 0.00452614 -0.35726884 -0.06677768 -0.060940724
0.061672572 -0.1190668 -0.046560206 0.03939818 0.035608057 0.28206792 -0.13475569 0.03161369
0.11940609 0.010639171 0.117306985 -0.13285413 -0.18157771 -0.16249305 0.048683893 0.031571127
0.1798452 0.051428206 0.1400189 0.08515732 -0.17953055 0.17064823 8.899149e-05 0.05197471
0.119397365 -0.025404166 0.039785262 0.09860566 0.26403606 -0.043215007 0.08788021 0.13415359
-0.13041833 -0.01337621 0.036872752 -0.009988611 -0.062272158 0.05947471 0.20627436 0.068775445
-0.11392676 0.069501854 0.24142079 -0.059528638 -0.109654024 0.018344963 -0.2570503 0.17424901
-0.11104219 0.008757193 -0.31528038 -0.077374354 0.23918992 -0.25819552 -0.057836678 0.15165365

encoder.gat1.lin_r.bias f4 [128]
00000000: 37c9 a03e c246 c53e 737e 953c a0e8 573e
00000010: c607 d3be 23ea b8be 9987 fe3b 4d75 0d3f
00000020: 55cf 0e3f bfd7 123f 657e 0e3f faee 2f3f
00000030: c42e 023f 0d43 123f 1bc6 943e 7b50 b4be
00000040: 7f3b 10bf beb0 ecbd 2c6d 343f 5673 fe3e
00000050: 3ece e7be 10d2 e13e 9a1e 24bf 203e 1a3f
00000060: a725 223f de70 08bf 6407 7d3e 33a4 4f3d
00000070: 7ff2 38bf 7e35 ce3c 1e4c 17bf 62d9 053e
00000080: f8ed 8b3e 0ce5 f4bd 1292 143f 24f8 abbe
00000090: 01c3 d13e 5d2b 1bbe f574 0f3e 24c4 493f
000000a0: 4aeb 123f 65c6 993e bfc2 b2be 70c7 adbd
000000b0: f502 24bf 260e 233f 8eea 8abe 0eb5 c13e
000000c0: c12a f6be 3c6a 26bf 41fc 0abf a46f b3be
000000d0: 4e9a 0a3f d073 19bf 1a4d 943e 7448 033f
000000e0: 7a24 b1be 100d 5a3e e4b0 7e3e ad94 2e3e
000000f0: 0a02 133f b71c 063f 498f eebd e25f 1a3f
00000100: 36a3 963e 5ec5 2abf 5e71 00bf 6200 40ba
00000110: d885 a5be 9ad5 ddbe b7c3 c0bb 4f20 de3e
00000120: ba11 9f3d 0432 9ebe 5829 e63e c4a4 6cbd
00000130: c37c 2f3f 988a 0d3e 48a4 1f3f d043 81bc
00000140: 7ab8 1e3e 80ab cabe 7842 bcbe 081e 1c3f
00000150: 328e dd3e 8d3f 1bbf eb31 15bf e651 143e
00000160: 1474 29be 44bb 163f ea18 46be a624 263f
00000170: a120 b0be 3118 28bf 8578 313f 6764 a63e
00000180: af91 ecbe c57f 3b3e f839 4a3f 9182 67be
00000190: b660 debe 2e26 a6bb d8f7 74be 4dd4 5abe
000001a0: e705 473f af76 cb3e 22e2 a4be 57d7 f4be
000001b0: 56e4 eebe 137e 69be 51e5 ad3c 3bbd febd
000001c0: 5df5 193f 9596 49be df62 ec3d 8b52 cf3e
000001d0: e59c 853e 2458 373f 0962 e8be 28ba cdbe
000001e0: e49a 4c3d d4ce 92be 5551 acbe b72a 86be
000001f0: e3fb 22bf a92f 833e 942e 233d a285 4a3e
0.31403515 0.38530546 0.018248772 0.21084833 -0.41216868 -0.36116132 0.0077676293 0.5525711
0.55785114 0.5736045 0.5566161 0.68724024 0.5085261 0.5713356 0.29057392 -0.35217652
-0.56340784 -0.115571484 0.70479083 0.4969737 -0.45274538 0.44105577 -0.64109194 0.60251045
0.633387 -0.5329722 0.2470985 0.050693702 -0.7224502 0.025171991 -0.5910052 0.13071206
0.27329993 -0.1195775 0.58035386 -0.33587754 0.4096909 -0.1515326 0.1400946 0.7881491
0.5739027 0.30034176 -0.34914204 -0.08485305 -0.6406701 0.63693464 -0.27132076 0.37833446
-0.48079494 -0.6500585 -0.5429116 -0.35046113 0.541417 -0.5994234 0.28965074 0.5128243
-0.34598142 0.21294045 0.24872166 0.17048903 0.57424986 0.52387565 -0.11648423 0.60302556
0.29421395 -0.6670741 -0.50172985 -0.0007324276 -0.32328677 -0.43327028 -0.005882706 0.43384025
0.07767053 -0.30897534 0.44953418 -0.05777432 0.68549746 0.138224 0.6236005 -0.015779406
0.1550006 -0.3958397 -0.36769462 0.60983324 0.4327255 -0.60643846 -0.58279294 0.14484367
-0.16548187 0.58879495 -0.19345441 0.6489967 -0.34399894 -0.65661913 0.69324523 0.32498476
-0.46204898 0.18310459 0.78994703 -0.22608401 -0.4343316 -0.0050704693 -0.2392267 -0.21370049
0.7774338 0.39738986 -0.32203776 -0.4782054 -0.46658581 -0.22802 0.02122751 -0.124384366
0.6014002 -0.19686349 0.11542296 0.40492663 0.26096264 0.71618867 -0.45387295 -0.40181088
0.049952403 -0.28673422 -0.336558 -0.26204464 -0.636656 0.256223 0.039839342 0.1977754

encoder.bn1.weight f4 [128]
00000000: d1af 743f 72ae 753f aed0 7e3f 4a26 783f
00000010: 605c 703f 3b06 853f 554a 843f 2aad 8c3f
00000020: 8dd6 833f 28e7 833f d560 6f3f a7ae 7d3f
00000030: 3419 853f f117 813f 4164 883f 8115 803f
00000040: a1dd 813f c5ed 793f 8276 7c3f 9bd5 783f
00000050: 177b 7d3f 2e2c 893f 5390 793f f58b 833f
00000060: e2de 7f3f 8617 803f adbb 763f b8a8 8b3f
00000070: 4af8 753f c42b 853f f0a8 7b3f 8eba 793f
00000080: 4507 823f 1d46 833f 7204 893f 410c 813f
00000090: 8872 833f 08a8 673f 8c36 853f b74e 883f
000000a0: b16e 893f 7755 6d3f ec97 7b3f d4de 803f
000000b0: e143 853f a3b4 683f bee1 853f b229 863f
000000c0: e51d 7c3f 8e75 833f b1d5 873f af47 863f
000000d0: 70ad 743f 6609 7b3f a8b2 7a3f d297 883f
000000e0: d331 853f d742 7b3f 7478 823f e510 7c3f
000000f0: c6f1 863f 5321 803f cb10 7e3f fa7b 803f
00000100: 58f8 7e3f 54a2 843f 856f 783f 30f8 873f
00000110: 5db9 813f d44c 803f 83d3 7e3f 3cf8 7e3f
00000120: a005 803f 6bf3 873f 7a89 7d3f 1e98 7c3f
00000130: 2684 7d3f 5603 863f 2e7a 893f f275 833f
00000140: 3c7d 6c3f 4303 813f 62bf 823f 54cb 853f
00000150: 8280 6b3f edf0 833f aa91 7d3f 653b 7d3f
00000160: 8340 853f 7a54 883f 18e3 793f ba19 853f
00000170: c331 7f3f b988 863f 9420 803f ec79 7a3f
00000180: 1507 833f e79f 883f c6b0 893f d501 763f
00000190: fc58 863f 5561 8d3f a8fd 7d3f fb44 7c3f
000001a0: a4ca 763f f810 773f 8784 833f dbdd 843f
000001b0: 4b60 833f 47a9 7f3f 0393 7a3f 0b01 813f
000001c0: 4e53 813f bbdd 793f 1f1b 833f 5c6a 853f
000001d0: bfaf 7f3f 6eea 843f e77f 793f 6218 863f
000001e0: e773 703f 325e 843f 10c1 793f 1072 7e3f
000001f0: a9c7 813f 2efd 8a3f 72a1 843f acfd 823f
0.95580775 0.9596931 0.9953717 0.96933424 0.93890953 1.0392526 1.0335184 1.0990345
1.0299851 1.0304918 0.9350713 0.99094623 1.0398316 1.0085431 1.0655595 1.0006562
1.0145761 0.9762843 0.9861833 0.97200936 0.99015945 1.0716608 0.97485846 1.0277086
0.9994947 1.0007179 0.9638012 1.0910864 0.96081984 1.0403981 0.98304653 0.97550285
1.0158468 1.0255772 1.0704482 1.0081865 1.0269327 0.9049077 1.0407271 1.0649022
1.0736905 0.92708534 0.9827869 1.0068002 1.041134 0.9090063 1.0459516 1.0481474
0.98483115 1.027025 1.0612088 1.0490626 0.95577145 0.98061216 0.9792886 1.0671332
1.040583 0.98148865 1.0193009 0.9846328 1.0542533 1.001017 0.99244374 1.0037835
0.9959769 1.0362039 0.97045165 1.0622616 1.0134693 1.0023446 0.9954149 0.99597526
1.0001717 1.062116 0.990379 0.9866961 0.9902977 1.0469768 1.0740411 1.0270369
0.9237859 1.007912 1.0214655 1.0452676 0.9199296 1.03079 0.9905039 0.98918754
1.0410312 1.065078 0.9761214 1.0398476 0.99685305 1.0510474 1.0009942 0.9784229
1.0236536 1.0673798 1.0757072 0.96096545 1.0495906 1.1045328 0.99215174 0.98542756
0.96402955 0.9651027 1.0274819 1.0380205 1.0263761 0.9986767 0.9788057 1.0078443
1.0103548 0.9760396 1.0242652 1.0423083 0.9987754 1.0384042 0.9746079 1.0476191
0.9392685 1.0341246 0.97560215 0.99392796 1.0139056 1.0858514 1.0361769 1.0233665

encoder.bn1.bias f4 [128]
00000000: 681e afbd 64f4 81bd 1349 59bd d6b2 4b3d
00000010: 33af cabd 0f7c 01bd 7f9e f23c 4c51 7b3c
00000020: 39a4 683d 1295 a23c 1a46 d6bd 4553 1a3c
00000030: 479e 02bd f0c5 5e3c 5541 193d e301 abbd
00000040: ba12 fb3c aee9 ee3c 95e9 863c 84be 39bd
00000050: 6d21 bdbd 1b8c c73c 28fb bebd 49be 4dba
00000060: 69f8 273d 2776 b0bc a4c2 4a3d 6261 313d
00000070: f022 35bd 6a8a 56bc ff63 aabd a5a5 79bd
00000080: 8369 9cbd 5d70 4f3d 3333 203d 1108 1c3d
00000090: 571c 643d 06ab 50bd 388f c33c 00d8 c23c
000000a0: d366 2a3d 00c5 a5bd c0ac 8cbd 1283 063d
000000b0: 2628 043c 9d3d 07bd dfbb fd3b e6ee 983d
000000c0: e59c dcbd f672 b2bc a2f6 623d fc81 353d
000000d0: 0623 c1bd 08eb 23bd 51be 413c aeb6 533d
000000e0: 1d88 6f3b 25fa 44bd a39b 0e3c b26b 93bd
000000f0: b31f 693c a99a f1bb e290 4f3c 3c3a 143d
00000100: f937 133d 6aa0 36bd aa7d aebd e289 083d
00000110: 20fb b83c c9db 29bb 18a2 1b3d 1b25 833d
00000120: ed46 b5bb d794 48bc ca2a 153d 1667 e9bc
00000130: 1631 64bc a7de 99bb 633d 543d 89f5 30bc
00000140: d48f eebd 5408 d43c ead7 c93b b044 483d
00000150: 0681 93bd 3d57 3dbd fd73 823c 12a0 81bd
00000160: 0ddb 03be 3474 0c3d 2388 81bd 81df 3d3d
00000170: d2f6 f43c 2d33 9d3c 2be3 83bc 25f5 9dbd
00000180: 139c 61bd 10a1 35bd aee2 223d 3e77 23bd
00000190: 8bfa e23c 14fc 963b 8d13 fe3c a17d 4bbd
000001a0: 13f7 4dbd 2991 75bc 0f71 223d 1cae e33c
000001b0: 5326 a4bd 6cd8 b5bd e9ce 88bd 3859 14bb
000001c0: f243 d4bc 4967 12bd fb14 72bd fdaf 3b3d
000001d0: 6e97 8bba 1200 ffbb 5760 5cbd 842d 493d
000001e0: df21 85bd 4135 123d bdf3 f3bc 5f1a 16bd
000001f0: 1424 333c b9b6 d9bc ecdd a13d 9900 78bd
-0.085507214 -0.06345442 -0.053048205 0.049731098 -0.09896698 -0.031612452 0.029616592 0.015339207
0.05679724 0.019846473 -0.104625896 0.009419267 -0.031889226 0.013596997 0.03741582 -0.08349969
0.030648578 0.029164162 0.016468802 -0.045347705 -0.09234891 0.0243588 -0.09325248 -0.0007848484
0.041008387 -0.021540714 0.04950203 0.043305762 -0.044222772 -0.013094524 -0.08319854 -0.060948987
-0.07637312 0.050644267 0.039111327 0.03809363 0.05569109 -0.05094435 0.023872003 0.023784637
0.041601967 -0.080942154 -0.06868887 0.032839842 0.008066213 -0.033017743 0.0077433432 0.07467441
-0.10772113 -0.021783333 0.05541099 0.044313416 -0.09430508 -0.040019065 0.01182516 0.05168789
0.0036549636 -0.04809012 0.008704099 -0.071982756 0.014228749 -0.0073731733 0.01266882 0.03618835
0.03594205 -0.044586577 -0.08520062 0.03333462 0.022580683 -0.0025918356 0.03799638 0.06403562
-0.0055321367 -0.012242517 0.03641776 -0.028491538 -0.013927719 -0.0046957317 0.051816355 -0.010800728
-0.11648527 0.025882877 0.006159772 0.04889363 -0.07202344 -0.046225775 0.015924448 -0.06329359
-0.1287653 0.034290507 -0.06324794 0.046355728 0.02990285 0.019189442 -0.016099533 -0.07712773
-0.055080485 -0.044343054 0.03976696 -0.03990864 0.027707359 0.004607687 0.031015182 -0.049680356
-0.050284456 -0.014988222 0.039658602 0.027792983 -0.08015122 -0.0887917 -0.0668009 -0.0022636186
-0.025911305 -0.03574303 -0.05910204 0.045822132 -0.0010649988 -0.007781991 -0.053802814 0.049115673
-0.06500601 0.035695318 -0.02977931 -0.036646243 0.010933895 -0.026576387 0.07903656 -0.060547445

encoder.bn1.running_mean f4 [128]
00000000: 0be5 223f 73fd fb3d b876 94be 2053 913d
00000010: 7030 1ebf aa26 243f cbfa fcbe 36a5 eabe
00000020: 4c52 1dbf 58ee 85be f29c 9e3d aa86 a63e
00000030: fd63 013e 714e c53e 38a7 1fbf cbe7 473f
00000040: f09e 1c3f 8923 003f 2fbc c93e 1cb5 f53e
00000050: 52e3 fe3e b9e0 00bf 9aa1 203f 3da7 cdbd
00000060: e90b ebbc 21a1 72be 5860 21bf d55c 353e
00000070: bf8c 42bd 1355 983e a001 0f3e e60f c3bd
00000080: 80e7 1fbf fcac d53e 9b16 e5be d80b 233e
00000090: 25a8 dfbe c877 15bf 918c 7dbe 2d19 e5be
000000a0: 6cb4 b43e 64d1 5cbd 30a2 083f 17be b7bd
000000b0: eb62 9cbb 477d b0be 8b66 933e 1cd5 003f
000000c0: eab8 933d 01d2 a8be 748d 28bf e2be fc3e
000000d0: 8eea 6bbe 8651 07bc 6c0f 093f fa6f 19bf
000000e0: cc1f b43c d77d f93e 066a b7bd 74bc 0b3f
000000f0: 5c18 023f baa7 243e 4beb d53e c6fa 17be
00000100: 5723 113f 1ab8 cdbe e16f 1d3e 1adb fe3e
00000110: db85 673e 186e 8c3e 596b 2d3e 76ae 3abe
00000120: 7251 ea3d d556 bf3d 5a01 1a3f 450d 283f
00000130: 7060 e9be a7bf c2bd c368 883e ded7 b2be
00000140: 5699 063f 0206 efbe 960b e93e b4a9 633e
00000150: 1f59 dcbe 51ed 01bf a97d fc3e ed1f babd
00000160: 629a 0c3f fcc5 443e e3d5 0fbf 9bef 1dbe
00000170: f469 ba3e a772 06bf cdb6 50be 9b6d 2d3f
00000180: b8d3 e7be 7639 1e3f b750 d9be 23e9 0f3f
00000190: 4f94 15bf 185f b73e 5b34 ca3e bb7e f23e
000001a0: c564 a53e 46bd 033f 3ca3 1bbe 0eaf 093f
000001b0: 7b2b 043f 34f7 ac3e eab1 cebd 5d81 bd3e
000001c0: d85f 90be f649 cf3e 121c a0be ea7f a93e
000001d0: 5329 13bf ae2f f6be 7867 febe 08e2 9dbe
000001e0: bc10 933e 26a0 0e3f 7b47 b03e f66d 4d3e
000001f0: 5551 e7bd 9735 a53e 6616 53be edff 8f3c
0.6363074 0.12304201 -0.28996825 0.07095933 -0.6179266 0.64121497 -0.4941009 -0.4582917
-0.614537 -0.26158404 0.07744779 0.32524616 0.12635799 0.3853641 -0.6236453 0.78088063
0.6118002 0.5005422 0.39401385 0.47989738 0.49782807 -0.503429 0.62746584 -0.10041664
-0.028692203 -0.23694278 -0.63037634 0.17711194 -0.047497507 0.29752406 0.13965464 -0.09524517
-0.62462616 0.4173354 -0.4474381 0.15922487 -0.43682972 -0.58385897 -0.24760653 -0.4474577
0.352939 -0.053910628 0.5337248 -0.08971804 -0.004772534 -0.3447058 0.28789172 0.5032518
0.07213004 -0.3297272 -0.6584084 0.49364382 -0.23038694 -0.008259183 0.53539157 -0.5993649
0.021987818 0.4872882 -0.08955769 0.5458443 0.5081842 0.16079608 0.41781077 -0.14841756
0.5669455 -0.4017952 0.1537471 0.49776536 0.22609656 0.27427745 0.16935481 -0.18230614
0.11441316 0.09342734 0.6015831 0.6564525 -0.45581388 -0.09509211 0.26642427 -0.3493032
0.5257772 -0.4668427 0.45516652 0.22232705 -0.43036744 -0.5075274 0.4931462 -0.090881206
0.5492307 0.1921615 -0.5618574 -0.15423433 0.3640896 -0.52518696 -0.20382233 0.6774537
-0.45278716 0.6180643 -0.42444393 0.56215113 -0.58429426 0.35814738 0.3949307 0.47362313
0.32303444 0.51460683 -0.15198988 0.5378274 0.51628846 0.3378235 -0.10092528 0.3701276
-0.28198123 0.40486115 -0.31271416 0.33105403 -0.5748493 -0.48083252 -0.49688315 -0.3083651
0.28723705 0.5571312 0.34429535 0.20061478 -0.1129481 0.32267448 -0.20614013 0.01757809

encoder.bn1.running_var f4 [128]
00000000: eb0f ce3c deda 743c d0ce 213d 2794 043d
00000010: 36b1 ca3b d0dc 3c3c 1067 363c b4d0 383b
00000020: 93fb 293d 73d3 7c3c 3067 083d 969a fd3b
00000030: 3adb 923c 1280 ef3c 1af7 0f3d 5196 833d
00000040: 2d2c 953b 73c2 4e3d 5aa6 1a3c d1ca b33d
00000050: c838 2d3d c648 823c 34ab 343d 46c3 7d3d
00000060: e2c3 663c 8319 5f3d 84fd 813c 5b71 813d
00000070: 611f 543c 8608 8f3c c314 2d3c 592b d33c
00000080: 6d2a 5e3d 21f8 dd3c b1fe e63b 9afd 2b3b
00000090: 4e23 9c3c b6dd 533c 0c8b e63d abab a73d
000000a0: c57c 7a3d 0276 a93b 1585 6f3d 95e5 0c3d
000000b0: d817 5d3b 8dc2 0e3d 7f13 683d bf16 543c
000000c0: 11d9 6f3d 3a99 c03c d911 833d 3937 f33d
000000d0: 2ad0 123c d7c6 b73c ab1e 3a3c 8d61 5a3d
000000e0: 34f0 0d3d 338b 173e 8047 dd3c 780c 903c
000000f0: d96e 0f3d 81d7 2a3d ecf6 093d 196a 213d
00000100: 11dc 883d b291 793c 33c5 dc3b fe02 533d
00000110: 562d f13c 737a 193d 210d 823c 7e14 1b3d
00000120: be82 de3c f474 0e3c de10 323c 3ac3 af3c
00000130: 31ea ab3d f449 363d ff15 8f3b 9311 203b
00000140: 764d a93d 8316 023d a116 7b3d 741f e83d
00000150: 4f29 eb3d 530e 473c 77b9 773d 9b74 ac3c
00000160: 3405 d23b 60b3 5e3d 6096 ce3c 9f36 003b
00000170: 392f c03c 127b d23c 2d7c 913c 0090 c83c
00000180: 21aa 273d 8c49 583c a2e8 e53c 2492 483e
00000190: c589 083c 5087 253b d7ac 423d 05d3 5c3d
000001a0: 8ef9 273e 6bb4 433c df9d 593d 8c27 9b3c
000001b0: 84c1 b53b a3c0 f63c 68e6 cc3c d855 533c
000001c0: b087 123d e322 893d 5f38 a83c 5a11 223a
000001d0: be95 593c 50a1 793c 8fdb 253d fa10 0c3d
000001e0: 9d55 a53c ad0e ca3c 513b af3d b6a0 bf3c
000001f0: 0603 033d d59a 0d3c 4822 553c d3dd fe3b
0.025154075 0.01494476 0.039503872 0.03236785 0.006185676 0.011527255 0.01113297 0.0028200569
0.041499685 0.015431273 0.033301532 0.0077393753 0.017926801 0.029235873 0.035147764 0.06425155
0.0045523853 0.05047841 0.009439075 0.087789185 0.04229048 0.015903842 0.044108585 0.061953805
0.014084788 0.05446769 0.015867956 0.06320449 0.012946934 0.017460119 0.010564032 0.025777506
0.05423968 0.027095856 0.0070494046 0.0026243688 0.019059803 0.012931278 0.1125699 0.0818704
0.061154146 0.0051715383 0.058476526 0.034398634 0.0033736136 0.034853507 0.056659218 0.012944876
0.05855662 0.023510564 0.063998885 0.11875767 0.008960763 0.022433681 0.011359851 0.053315688
0.034652904 0.14799194 0.027011633 0.01758407 0.035017822 0.041709427 0.03368275 0.039407823
0.06682599 0.01523249 0.006737375 0.051516525 0.029440563 0.037470292 0.015875401 0.03786134
0.027161952 0.008694876 0.010868279 0.021455396 0.08394278 0.04450412 0.004366636 0.0024424538
0.082667276 0.03175975 0.061300877 0.11334124 0.11482488 0.012149411 0.060479607 0.021051696
0.0064093117 0.054370284 0.025218189 0.0019563807 0.023460018 0.02569345 0.017759407 0.024482727
0.040933732 0.013201129 0.02806503 0.19586998 0.008333628 0.0025257654 0.047528114 0.05391218
0.16403791 0.01194487 0.053129073 0.018939756 0.0055467505 0.030121153 0.02501221 0.012898885
0.035773933 0.06696107 0.020534692 0.0006182395 0.01328033 0.015236214 0.04049259 0.034195878
0.020182425 0.024665201 0.085562356 0.023392063 0.031985305 0.008642872 0.013008662 0.0077779084

encoder.pool1.select.weight f4 [1, 128]
00000000: 029b dd3c abd8 3e3c 4e00 0fbc 4150 fbbb
00000010: b519 4dbb a0c6 263d c21e 6ebd 7278 b63d
00000020: fa44 b8bd aa21 e33c 5afe 5f3d b1a3 713d
00000030: 59f2 ac3d adbb 6abd 94b8 803c f0dd 873d
00000040: 2ce4 1f3d a0e8 bdbb f6b8 bb3c 9b94 d93d
00000050: c27c aa3d 480a cdbc 11e5 803d 07ef 5bbc
00000060: 404a 7abd 7861 5f3d 2237 57bc 41fc efba
00000070: 4f0e ac3c 510f 8a3d 8fa2 e93c 6f38 19bd
00000080: b6f9 c93d 2d12 a7bd ba1a 843d 3d3a 90bd
00000090: 72db cdbd 3a5d 24bd 6a18 733b b664 da3c
000000a0: 7623 e5bd b228 8e3d 4de2 253d b2f5 d53c
000000b0: ff60 6c3d 94f2 2abc ff53 373d f28d 69bc
000000c0: 6e11 743d d009 853d 895f d7bd 5d91 d4bc
000000d0: b604 763d 48dd ebbc 5795 d8bc fef5 bfba
000000e0: 1d46 063d 1974 a93d 7ded 283d 3f65 bd3c
000000f0: c428 0a3d 1ead 5abd f309 8c3c 5340 b2bd
00000100: 93b8 cd3b a3e4 b03d f0e1 363c a1ba 90bd
00000110: f0b1 b83c 49b7 8ebc 310b 6fbd ad45 42bc
00000120: 2c4f 113d 01b4 373d 9b4f c5ba 7892 a2bc
00000130: 48a3 533c 2533 623c 80a4 b3bd 5af2 ac3c
00000140: e8a1 913c 532b 39bd 2aa3 c13d f5dd 49bd
00000150: 2ae5 843d 8bad 363d 5f13 1b3c 9296 ac3c
00000160: 55c1 593d 77b4 fbbc ebd9 003e eba9 2ebd
00000170: 001a 66bd 6eda 423d f0c2 3dbc 3c3a bd3d
00000180: b47a 703d 6800 d23d 8a5e a2bd 1d3a 083d
00000190: 2cfe 633d 2830 a63d 9e3f a8bd c975 243d
000001a0: 5c08 1e3d ae48 b03c 3f8b 68bd 2ae9 563d
000001b0: da70 b53d 47cf 313c 4452 a53d fe53 da3d
000001c0: 4589 ba3d 8e3d 8e3c ade5 1c3d 3632 7fbb
000001d0: ce7c ba3d 1ab2 9a3d 5eea d73d 803d 87bd
000001e0: 1100 533d 8686 ee3c 48f4 0fbd 06c3 c83d
000001f0: 7dee 64bd cf06 d93d 641f 15bd 09d3 5c3d
0.027051453 0.011648337 -0.0087281 -0.007669479 -0.003129584 0.040716767 -0.0581348 0.08909692
-0.08997531 0.027726013 0.054685928 0.058994 0.08444662 -0.057307888 0.015713014 0.06634128
0.03903596 -0.0057955533 0.022915345 0.10624047 0.08324577 -0.025029317 0.06293691 -0.013423688
-0.061105967 0.054536313 -0.013135703 -0.001830943 0.021002917 0.067412026 0.028519897 -0.037407335
0.09862082 -0.08157764 0.0645041 -0.07042358 -0.100516215 -0.04012797 0.003709341 0.02665935
-0.11188404 0.06941356 0.04049902 0.026118133 0.05770969 -0.010433812 0.04475784 -0.014255034
0.059586935 0.06496012 -0.10516269 -0.02594822 0.060063086 -0.028792039 -0.026438398 -0.0014645455
0.03278171 0.08274097 0.04124211 0.023119567 0.033730283 -0.053387754 0.017094588 -0.08703675
0.0062781065 0.08637359 0.011162266 -0.07066847 0.022545785 -0.017421382 -0.058360282 -0.011857432
0.035475895 0.0448494 -0.0015053632 -0.019845232 0.012917347 0.013806139 -0.0877161 0.021111656
0.017777398 -0.045207333 0.09454949 -0.04928394 0.06489022 0.044599097 0.009465068 0.021067891
0.05316289 -0.0307257 0.12583129 -0.042642515 -0.05617714 0.047571592 -0.011582121 0.09239623
0.05871077 0.10253984 -0.07928188 0.033258546 0.05566232 0.08114654 -0.08215259 0.04015139
0.03858219 0.021519031 -0.05677342 0.052468456 0.08859415 0.010852641 0.080723315 0.106605515
0.09108213 0.017363336 0.038304973 -0.003893984 0.09105836 0.075535014 0.10542749 -0.06603527
0.051513735 0.02911688 -0.035145074 0.09802823 -0.055891503 0.10597002 -0.03640689 0.053912196

encoder.gat2.att f4 [1, 2, 32]
00000000: 22d6 043e 6150 a13e 9a42 8ebe 2310 a6be
00000010: 628d fc3d eddb 993e dc0e b4be 7522 3a3d
00000020: 163c b33e 4c8f 18be 0b17 80be c94f bb3e
00000030: bed7 1ebe c25e 303d 18ca 543e fc15 a13e
00000040: 81e8 823d ac59 a3bd c2ac a63d 6872 b0be
00000050: ae13 04bf 0864 9b3d 2414 dabe 5d7d 60be
00000060: 3223 f03d 56dd 9bbe 2aa3 6f3d 381a 993e
00000070: 3164 4abe 784d 87be b67b 8dbe 390b 83be
00000080: a060 edbe eb2a bbbe f6f0 523e 7072 983e
00000090: b6bb 5f3e fb3d 58bc 2b24 903d a4e6 21bd
000000a0: 196a a23e d81e 783e dd43 93be 1f4e 91bd
000000b0: 23df eebd 5dad 833e d6a9 873d 7053 36be
000000c0: 4126 10bd f80b bbbd 997f 78be 8d06 a33e
000000d0: 4732 673e e295 d5be 5204 c93e 52d3 4bbe
000000e0: 701c 8fbe 4fa9 1f3e bda9 84be 61e6 c8be
000000f0: dbc3 19be c8f5 7ebe 4996 cdbe a2b4 0b3e
0.1297231 0.31506637 -0.27785188 -0.32434186 0.12331654 0.30050603 -0.35167587 0.045443017
0.3500678 -0.14898413 -0.2501758 0.3658431 -0.15511987 0.043059118 0.20780218 0.31462085
0.06392003 -0.07976088 0.0813842 -0.34462285 -0.5159253 0.07587439 -0.4259349 -0.21922822
0.11725463 -0.30442303 0.058505215 0.29902816 -0.19764782 -0.2642629 -0.27633446 -0.255945
-0.46362782 -0.3655618 0.20599732 0.2977481 0.2184895 -0.013198371 0.070381485 -0.039526597
0.3172157 0.24230516 -0.28762713 -0.070949785 -0.11663654 0.25718203 0.066241905 -0.17805266
-0.03519273 -0.09133142 -0.24267425 0.31840935 0.22577773 -0.41715914 0.3926111 -0.19904831
-0.27951384 0.1559193 -0.2591075 -0.39238265 -0.15016119 -0.24898446 -0.4015372 0.13643125

encoder.gat2.bias f4 [64]
00000000: 0d2b b33c 78e4 243d 65dd 82bc 054c 283b
00000010: 19f0 363a fdea 67bc ac44 06bc 5052 f23a
00000020: 7306 04bd e520 03bc 96ec 013d 96d4 6abc
00000030: d4dd b5bc e077 523c 2013 b8bc 5844 2fbd
00000040: ff4d 953c 9ad1 56bd 433e 513a d2a3 073c
00000050: 69c5 b43c bf56 d4bc a844 abbb 2b5a edbc
00000060: 79c9 ed3b 66fb e33c f796 5d3b d98e c93b
00000070: 5ecf 533c 6744 82bc a06b 4e3c 5450 36bc
00000080: 6788 8fbc 2a86 e1bc cfe4 01bc 2b7b 69bc
00000090: 45fb a1bc fbe0 4f3b 2e7f 333c 493c 113d
000000a0: c4c3 b23b ef07 25bb 6242 393c 4b20 9b38
000000b0: b972 4d3c c756 bdbb 6b25 72b9 a423 edbc
000000c0: 9c7e 92bc 74aa 043c 9565 c73b eac0 473c
000000d0: 6fc8 12bc 17dd 8e3c e97e 773b 2e6b 113d
000000e0: 0e7a 853c b443 3c3d 2c60 0e3d b8ff c83c
000000f0: b61d c33c af4d 52bd fe14 71bc 65e0 1d3d
0.021871114 0.040256947 -0.01597471 0.0025680077 0.00069785264 -0.014155147 -0.008195084 0.0018487666
-0.032232713 -0.008003448 0.031719767 -0.014332911 -0.022200502 0.012845963 -0.022470057 -0.042789787
0.018225668 -0.052445985 0.0007981995 0.008278804 0.022066789 -0.02592027 -0.0052266903 -0.02897366
0.0072566834 0.027829837 0.0033811906 0.006151062 0.012927858 -0.015901757 0.012598902 -0.01112755
-0.017521096 -0.027529795 -0.007928087 -0.014250557 -0.019773135 0.0031719792 0.010955615 0.035457883
0.005455466 -0.002518173 0.011307331 7.396991e-05 0.012539559 -0.005778167 -0.00023092858 -0.028947659
-0.017882638 0.00809728 0.0060851076 0.01219199 -0.00895892 0.017439408 0.0037764853 0.035502605
0.016293552 0.045963004 0.034759685 0.024535999 0.023817878 -0.051343616 -0.014714478 0.038544077

encoder.gat2.lin_l.weight f4 [64, 128]
00000000: 31e2 f0bd 1d86 f5bd acd9 4e3e 526b 04be
00000010: 436a 673d a389 fc3d 4a67 663c 42e0 173e
00000020: 21b9 bf3d fe79 b23d 9a7d 1fbc fc33 6b3c
00000030: 8241 933d ce88 12be 15bd 063e 62f2 173d
00000040: a619 243e e11f 3cbe 4758 053e c20e c0bd
00000050: 7865 013e de88 b6bd eb62 03be 99ea f73d
00000060: 4ae9 8a3d 4328 a4bd 0206 263e 66ca b83d
00000070: d2ba 2c3e 2b74 fcbd fb6d 94bd 4228 e5bb
00000080: 5a65 c3bd d19b b3bd 42a7 9abc 38d9 323e
00000090: d020 8b3d a4dd bdbd 589d 1fbb 3441 993d
000000a0: 92a9 91bd d83e 4f3e 224d 5dbd 59bb a63d
000000b0: cfb6 5b3c 460c 193d 88a6 da3d 2f52 acbd
000000c0: 9ae0 06be 582a 4bbd bdfe eb3d e7ed 18bd
000000d0: 1848 44be 5e11 0d3d 7e49 133e 54a5 a53c
000000e0: 8bba 1e3e 8e51 aa3d 5a5b a63d 1927 0a3d
000000f0: fd64 143e 78a6 7f3d ec99 1c3e 9309 efbd
00000100: 2133 de3d 6def 1cbc a82a 03be 9945 0abe
00000110: cda0 d0bd b666 c2bc 9e5c 57be 5804 313e
00000120: 9f6e 313e f23b c8bd 5d57 2a3e 243e 8d3d
00000130: 4072 83bd 00d8 acbc 1c1f 81bd 6e7d 84bc
00000140: 21fd 0ebd 3e86 8abd 7321 b2bc 6aef ca3c
00000150: ab98 aebd 0642 7a3e 882f 783d 8252 013e
00000160: 845d 953d 7af5 413e 1c3f f2bd 53ae 89bb
00000170: 86e7 2dbd 622c 543e 6235 abbd 74e7 0ebd
00000180: 674d 193d 9ca0 123d 54cf 27bd 0a96 49bd
00000190: 1600 2d3e 7d49 693e 9f7d 9b3d 8494 8fbd
000001a0: e065 c73d f126 95bd a972 153d cb91 003e
000001b0: b9cd e93c 18e6 9fbd b754 283e b32c 6c3d
000001c0: 1a95 08bb c986 e5bd f9ec 3d3e 639c a23d
000001d0: 0010 83bc 65a1 713d 8fa2 4c3e 0ca2 acbd
000001e0: ec99 ec3d 75a7 193e 4aa9 813c 8763 2a3e
000001f0: 1dab b7bc 24c7 453d b712 533c 0a2e 12bc
00000200: 2583 663d b1ec 1bbe 7df9 293e 8cfd 9bbd
00000210: 2934 90bd f9f8 fb3d 3674 d6bc e20e a23d
00000220: c954 a73d 9a7f bf3d ef91 a73c 01df 7abd
00000230: 02ff cdbd 9c5d 14bd 9171 3bbe ebd2 dabd
00000240: 3052 153d bf71 543c 586e 33bd b551 033e
00000250: 337b 18be 6f33 5dbd 0a91 c5bd 70b4 30bb
00000260: 3375 623d b976 ac3d f994 343e d3c3 55bd
00000270: 2cc2 0cbe e74d 44be 828a 9b3d b8ec 86bc
00000280: 6632 0abe b26b 0f3d 83fd ccbd aea4 d63d
00000290: 5808 ef3c b6a4 ffbb 7e8c f43d c365 16be
000002a0: 8af7 ecbd fbd1 2dbd 2afd e03d 0ad2 b9bd
000002b0: 4ae5 4dbd 6a91 09bc 8777 0e3e 7457 283e
000002c0: 5ef9 bb3d 4974 9ebd 037a 5cbe a96d d43d
000002d0: 4339 473d 98f1 ddbd 8c8a 82bd 1e75 03be
000002e0: 5413 38bd 39f4 853d 7b44 b93d e000 d73d
000002f0: 79c3 82bd e3dd 52be 27f7 2ebd 40f6 12be
00000300: 022a d03d ed49 443d fc74 abbd f2fd 36be
00000310: d368 5e3d 1011 2ebe fc2f 8ebd 3e03 843d
00000320: 4036 5cbb fe24 24be 1883 103d 21e1 04be
00000330: 3410 98bd f7e7 263d d3cd b0bd b498 10bd
00000340: 4a2b b1bd 5916 0cbe c01c 03bd ce54 2d3b
00000350: bbe7 afbd d9c2 a8bd 8e4d a23d a1f3 2d3e
00000360: 590a 653c 831e 2bbe f899 47bd 6b1b 41be
00000370: b85b f4bd 703a fabd 077d 373d 3f5e 483e
00000380: 1d7d 28be 3981 9ebd 412e 2bbe ebca 613d
00000390: 6721 dabd 296f de3b e946 b03d b7d3 5ebe
000003a0: 2be1 d8bd 1fdb ab3d fa1c 2bbe 0730 cabc
000003b0: 278a eebc 4b9e 10be e0e9 bbbb 8eb9 0b3d
000003c0: afec 603a c981 e23d 7e04 be3d 9d77 d5bd
000003d0: 7e72 fc3c d20f 89bd 37d4 693d a433 0bbe
000003e0: 91e2 1cbe 5447 cfbd d97c 5fbd 3889 e6bd
000003f0: 5ede f93d 83a1 de3d c891 04be dc8a c33d
-0.117618926 -0.11988471 0.20200223 -0.12931564 0.056497823 0.123309396 0.014062712 0.14831641
0.093614824 0.087146744 -0.009734536 0.014355656 0.07190229 -0.1431 0.13158067 0.03709639
0.16025409 -0.18371536 0.13021956 -0.09377815 0.12636364 -0.08912824 -0.12830703 0.12105293
0.067827776 -0.08015492 0.1621323 0.090229794 0.16868141 -0.12326845 -0.072475396 -0.0069933245
-0.09540816 -0.08769954 -0.018878583 0.17465675 0.06793368 -0.0927079 -0.0024355259 0.0748314
-0.07112421 0.20238817 -0.054028638 0.081412025 0.013410284 0.03736522 0.106762946 -0.08414113
-0.13171616 -0.04960093 0.11523197 -0.037336256 -0.19168127 0.03444039 0.14383504 0.020220436
0.15500848 0.083163366 0.08122893 0.033728693 0.14491649 0.062414616 0.15293092 -0.11671748
0.10849596 -0.009578568 -0.12809241 -0.13503112 -0.1018692 -0.023730617 -0.21031424 0.17286813
0.17327355 -0.09777059 0.16634889 0.06896618 -0.06418276 -0.02109909 -0.06304762 -0.01617309
-0.03490937 -0.06763886 -0.021744465 0.024772365 -0.08525213 0.24439248 0.060592204 0.1262913
0.07293227 0.18941298 -0.118284434 -0.0042016893 -0.042457126 0.20720056 -0.08359791 -0.0348887
0.037427332 0.0357977 -0.040969208 -0.049215354 0.16894564 0.2278194 0.0759232 -0.07010749
0.09736228 -0.07282818 0.0364863 0.12555616 0.028540479 -0.07807559 0.16438566 0.057659816
-0.0020840825 -0.11207349 0.18547429 0.07939985 -0.01599884 0.05899181 0.19983886 -0.084293455
0.11552796 0.15005286 0.015827794 0.16639529 -0.02242046 0.04828562 0.01288288 -0.008922109
0.056277413 -0.1522701 0.16599078 -0.076167196 -0.07041199 0.12303347 -0.02617846 0.07912995
0.08170468 0.0935051 0.020455329 -0.06124783 -0.100584045 -0.036222085 -0.18305041 -0.10684761
0.036455333 0.012966572 -0.043806404 0.12824138 -0.14890747 -0.05400413 -0.09646805 -0.0026963018
0.05528755 0.08421082 0.17634954 -0.052188706 -0.13745946 -0.19170342 0.07594778 -0.016470298
-0.13495788 0.035014816 -0.10009291 0.10480629 0.029178783 -0.0078016175 0.11940859 -0.14687257
-0.11570652 -0.04243658 0.10985787 -0.09073265 -0.050267495 -0.008396486 0.13912784 0.1643961
0.091784224 -0.077370234 -0.21530919 0.103724785 0.048638593 -0.10837096 -0.06374082 -0.12837645
-0.044940308 0.065407224 0.09046265 0.10498214 -0.0638494 -0.20592456 -0.04271617 -0.1435175
0.10164262 0.047922064 -0.083719224 -0.1787031 0.054299187 -0.16998696 -0.06942746 0.06445931
-0.0033601671 -0.16029736 0.03528127 -0.12976505 -0.074249655 0.040748563 -0.08633008 -0.03530188
-0.08650835 -0.136804 -0.03200984 0.0026448253 -0.08589121 -0.08240289 0.07924949 0.16987468
0.013979518 -0.16710858 -0.04873082 -0.18858115 -0.119315565 -0.12218177 0.04479697 0.19567202
-0.16453977 -0.07739491 -0.16716863 0.05512516 -0.10650902 0.0067881537 0.08607275 -0.2176045
-0.105898224 0.083914034 -0.16710272 -0.024681104 -0.02911861 -0.14122884 -0.005734667 0.034112506
0.00085801905 0.11059911 0.092782006 -0.10423205 0.030816313 -0.066924706 0.05708715 -0.13593918
-0.15320803 -0.10121027 -0.054562423 -0.11256641 0.12200616 0.1087065 -0.12946236 0.0954797
