output/egnn.pt (torch, 82449 bytes, 31 tensors)

encoder.egnn1.edge_mlp.0.weight f4 [32, 5]
000000 5a 48 cf be 20 80 12 bd 91 28 cc bd d0 c7 86 3e
       -0.40484887 -0.03576672 -0.09968675 0.2632432
000010 ef 1b 2b 3e 40 2d 85 be fc c3 5c be 18 89 aa 3e
       0.16709875 -0.26011086 -0.21559137 0.3330772
000020 b8 5c 24 3e 8a 55 c9 3e ee 9c d1 bc 2d 9a 52 3d
       0.16050994 0.39323074 -0.025587525 0.051416565
000030 46 f8 b6 3e 02 99 bd 3e 88 21 4a 3e 10 cd a4 3d
       0.35736293 0.37030798 0.19739354 0.08046925
000040 c4 25 ac be eb 65 b5 be 27 cb b0 3e 0d 68 ac 3e
       -0.33622563 -0.3542932 0.34529993 0.33673134
000050 cb de 38 3e 7e 27 bf be e0 ee a8 be 68 09 3d 3d
       0.18053739 -0.37334818 -0.32994747 0.04615155
000060 f6 e9 22 3d e9 62 cb be 11 87 54 be 68 0f 80 3e
       0.039773904 -0.397239 -0.20754649 0.25011754
000070 6d 77 b3 bd 77 49 51 be c4 4a b8 be c1 bf b5 3e
       -0.08763013 -0.20438181 -0.35994542 0.3549786
000080 ba b6 5d 3e 0d 15 b8 be e7 17 1f be d0 b6 f7 3d
       0.21651736 -0.3595356 -0.15536462 0.120954156
000090 1e 7f d0 3e d2 54 84 be 94 06 8d 3c 09 62 05 3e
       0.40721983 -0.25845963 0.01721505 0.13025679
0000a0 fb e8 4e 3e 40 3b 0b 3e 2a a0 9f be b0 f2 51 be
       0.20206062 0.13596821 -0.31176883 -0.20502734
0000b0 dc d9 77 be f1 ce b3 be fd 79 b0 be 88 95 a6 be
       -0.242042 -0.3511882 -0.3446807 -0.32535958
0000c0 2d 79 d7 bd 0c b2 e3 be 90 c6 9a be 9b d9 4b be
       -0.10521159 -0.44471776 -0.30229616 -0.19907229
0000d0 7f ec 86 be 8e 07 0e be f0 eb 51 3e ba 60 66 3e
       -0.26352307 -0.1387007 0.2050016 0.22497836
0000e0 0c ba af be 86 08 e1 bd 69 f3 8f be d7 1f ae 3e
       -0.3432163 -0.10987954 -0.28115395 0.34008667
0000f0 01 50 bf 3e 77 63 80 be 9b d0 d3 3e 04 d6 21 be
       0.37365726 -0.25075886 0.4137009 -0.15804297
000100 ba 2a 90 3e 66 9c 8f bd 5f ba b3 be 6e b7 0c bd
       0.28157598 -0.070122525 -0.35103127 -0.03435462
000110 76 70 ca be 1e b7 62 3d 16 6f d4 be 6c 4c 84 be
       -0.39538926 0.055350415 -0.41491002 -0.25839555
000120 44 2a cc 3d 20 72 92 3d a3 33 bb 3d a8 26 ac be
       0.09968999 0.07150674 0.09140708 -0.33623242
000130 35 f8 1f be da 16 2c 3d b6 89 66 be bb 88 39 be
       -0.15622027 0.04201398 -0.2251347 -0.18118565
000140 e2 f2 a5 bc 89 40 9a 3e e3 81 4f 3e 80 8c ab 3e
       -0.020257417 0.3012736 0.20264392 0.3350563
000150 01 a2 fd bd 07 18 e6 3e 33 29 0b bc 80 0b 87 be
       -0.123844154 0.44940206 -0.008493709 -0.2637596
000160 a4 d4 bb be 74 c6 d4 be 19 2c 87 3e 98 37 bf be
       -0.3668567 -0.41557658 0.2640083 -0.37347102
000170 d7 c3 a8 be 9f 80 ee 3d f6 d0 ec bd e1 0d a8 3e
       -0.32961914 0.11645626 -0.11563294 0.3282309
000180 48 c0 bd bd d9 c5 3f 3e b3 54 b8 3e b1 d8 9d be
       -0.0926519 0.18727817 0.3600212 -0.30829385
000190 e7 be 8d 3d 62 85 71 bd 2f e6 67 3e 2a 4a 04 3e
       0.06921177 -0.058965094 0.22646402 0.12918916
0001a0 7b c4 89 3c 85 3e c4 3d 8b 22 ba 3e 98 18 8e be
       0.016817322 0.09582237 0.3635448 -0.2775314
0001b0 75 e0 6d 3d f8 57 ba be e4 60 89 bd 93 17 a3 be
       0.058075387 -0.3639524 -0.067079335 -0.31853923
0001c0 4d 1b 46 be a6 47 a0 3e d7 dd 1d 3c 9a 30 a9 3e
       -0.19346352 0.31304663 0.00963541 0.33044893
0001d0 75 00 4a 3e dd 15 b6 3e fb 1a ea bd 4a 01 b0 3b
       0.19726737 0.35563555 -0.11430927 0.0053712474
0001e0 a3 2d e6 3b a8 77 29 be 35 ae 46 be e2 51 6e 3d
       0.0070244833 -0.16549551 -0.19402392 0.05818356
0001f0 ff 5b ae 3d e0 c3 a0 3e fe 48 41 3e 19 4c 54 be
       0.085136406 0.3139944 0.188755 -0.20732154
000200 69 ba a0 3e 0b 3f b6 be ff cf b6 bd eb d7 d6 bc
       0.3139222 -0.35594973 -0.08926391 -0.026226005
000210 76 7c 0d be 8d 5f d0 3d cf a3 c7 3e 4f 7d 69 3b
       -0.1381701 0.10174475 0.38992164 0.0035627668
000220 e9 bf 66 3e 49 23 13 bd 95 f5 02 3d 8b 01 dc 3e
       0.22534145 -0.035922322 0.031972487 0.42969927
000230 4b f6 9c 3e fb 2f 12 be 0b 04 c1 bd 54 c9 c0 bd
       0.30656657 -0.14276116 -0.09424599 -0.094134
000240 f2 a4 81 3d 3e 81 81 3e de 70 32 bd af 4c 3d bc
       0.06330289 0.25293916 -0.04356467 -0.011553927
000250 f2 e7 03 be 2c b6 74 bd 02 72 0d 3d 11 e0 a0 be
       -0.12881449 -0.059744045 0.034532554 -0.3142095
000260 5c 9e b0 3e 71 3b 54 bc 95 f8 86 be ac 64 7b 3e
       0.3449582 -0.012953625 -0.26361528 0.24550122
000270 bc 64 58 be fa cd 13 bb f2 54 ff bd 3f d2 91 be
       -0.21132177 -0.0022553192 -0.12467374 -0.28480718

encoder.egnn1.edge_mlp.0.bias f4 [32]
000000 f2 4c 67 be 7d 12 40 3e a1 16 a1 3c 0e 56 a2 be
       -0.22587946 0.18757053 0.01966411 -0.3170628
000010 41 45 47 be b7 e9 84 3e e6 e6 c4 3e 9e 7b b5 be
       -0.19460012 0.2595956 0.38457412 -0.35445875
000020 ac 30 be 3e 41 f7 a2 be 9c 3e a3 3e 64 bd cb 3d
       0.3714651 -0.31829265 0.31883705 0.09948233
000030 31 df ca 3d 62 da a0 be 33 0b 8c 3b fd 5b 78 3e
       0.09905852 -0.31416613 0.004273796 0.2425384
000040 bd b3 00 3e 30 75 e9 bc cd 4d 9b 3e fd b5 46 3e
       0.12568565 -0.028498262 0.30332795 0.1940536
000050 31 ff b3 3e cf 1d d3 be 79 94 6b 3e 26 d8 d8 be
       0.35155633 -0.4123368 0.23005857 -0.42352408
000060 c7 e2 21 3d 73 a1 aa be 50 09 de 3d ce 56 ae bd
       0.039522912 -0.333263 0.1084162 -0.085126504
000070 38 a6 42 be 5c 6f e1 3d 01 eb b8 be 44 3b 0d be
       -0.1900872 0.11007568 -0.36116794 -0.1379214

encoder.egnn1.edge_mlp.2.weight f4 [32, 32]
000000 0c 79 12 3e 99 52 32 3e 2a 52 fd 3d 37 c5 ac 3d
       0.14303988 0.17414321 0.12369187 0.08436053
000010 9c b6 61 bb b1 b8 96 3c 76 79 22 bc e9 87 29 be
       -0.003444112 0.018398615 -0.009916654 -0.16555752
000020 8c 27 90 3d 2d 07 b2 3d b9 fd 00 be 7b 2c 9a bd
       0.07038793 0.08692775 -0.12596788 -0.07528015
000030 36 0c 30 3e d3 f9 30 3e 77 d6 c9 bd 2a d4 0a bd
       0.17192158 0.172828 -0.09855359 -0.03389374
000040 47 e7 4a bc be 59 fe 3d 76 7a 11 be f6 4a e4 bd
       -0.012384242 0.12419461 -0.14206871 -0.1114711
000050 47 be 3d bd a8 a1 80 3d 01 50 cd bb 66 bb 8c bb
       -0.04632404 0.062808335 -0.0062656407 -0.0042948006
000060 61 f4 01 3e 6b 73 1b 3e 37 3f 41 bd 76 58 95 3b
       0.1269088 0.15180747 -0.047179427 0.0045576645
000070 59 2f 95 bd a9 5e 1a bd 1f 93 0b 3e 0c 3d 9b bd
       -0.072844215 -0.03768793 0.13630341 -0.07580003
000080 b3 ca ad 3d 79 c5 24 3d 34 50 0a be b4 45 f7 bd
       0.084859274 0.040227387 -0.13507158 -0.12073842
000090 86 df 3f bd 39 32 e7 3d 2d 0d e1 bc e8 7f c0 3d
       -0.046844028 0.11288876 -0.027472103 0.09399396
0000a0 80 38 24 be c9 3d d7 3d e5 30 26 be ec c2 87 bd
       -0.16037178 0.105098315 -0.1622959 -0.06628975
0000b0 23 a9 43 bc cd 59 53 3d bc f8 98 ba 8e bb ad bd
       -0.011942181 0.051599313 -0.0011670808 -0.08483039
0000c0 5b 11 d9 bc 76 ee ad 3c 2b 3d 09 be 61 5f f6 3d
       -0.026497534 0.021231871 -0.1340224 0.12029911
0000d0 70 d7 23 be 81 7c 9a bd b9 67 7f bd 58 9e 98 3d
       -0.16000152 -0.075432785 -0.062354777 0.07452077
0000e0 b0 0b 16 3e 66 8d 05 be 7c e4 23 bd 7e df 97 3d
       0.14652896 -0.1304222 -0.04001282 0.074156746
0000f0 04 1a 24 3e 8c dd 01 3e 0b 41 8a bd 58 f9 0d bc
       0.16025549 0.1268217 -0.06750687 -0.008665405
000100 6c 90 9b 3c f1 05 a7 3c 08 00 7d 3d 68 c3 52 3d
       0.018989764 0.020388575 0.061767608 0.051455885
000110 33 96 5c bc 5b 1d cd 3d 78 a2 be 3d 52 f4 bf 3d
       -0.013463545 0.10015365 0.09308332 0.09372772
000120 12 18 82 3d 66 e1 93 3d 03 43 b7 bd 22 c6 23 3e
       0.06352247 0.07220726 -0.08948328 0.1599355
000130 35 00 09 3e ae 52 2a 3d 4a be 9c 3d 3c 2d df bc
       0.13378985 0.041582756 0.07653482 -0.02724325
000140 0f 64 7d bd 6f 26 e7 bd a9 e6 37 bd d8 cc a6 3d
       -0.061863 -0.112866275 -0.04489771 0.081445396
000150 4a 0e fe 3d a5 d1 5d 3d 6e e5 99 bd 71 78 c7 3d
       0.12405069 0.05415501 -0.07514463 0.09739769
000160 c7 00 8a bb 8c cc 76 3d 7e 04 23 3e e6 0f ea bd
       -0.0042115184 0.060253665 0.15919682 -0.11428814
000170 0f 5d 71 3d b1 38 21 bd c8 57 0d 3e f8 d5 ee bd
       0.05892664 -0.039360706 0.13803017 -0.11661905
000180 bf ad a6 3d d9 d8 9f bd 5e 4c 16 bd 11 92 3e 3c
       0.08138608 -0.07805032 -0.036693923 0.011631505
000190 50 9a ae 3d 5e 25 25 3e f9 7e e2 bc 45 20 93 bd
       0.085255265 0.16127536 -0.027648436 -0.07183889
0001a0 a2 50 30 3e c2 3f 73 3d 2a 3a 16 3e 93 b6 fb 3d
       0.17218259 0.059386976 0.14670625 0.12290683
0001b0 e8 86 96 3d c6 71 03 bd 8c 59 38 3e 0a d2 ae bc
       0.0734995 -0.032090925 0.1800291 -0.021340389
0001c0 c4 f1 0c be d8 74 38 3e a1 d8 14 3e 17 e6 a9 3d
       -0.13764101 0.18013322 0.14535762 0.08295839
0001d0 a7 67 c3 bd 84 45 0c 3c ca d8 6a bc dc aa 95 bb
       -0.095412545 0.008561496 -0.014333913 -0.004567487
0001e0 fa 3b 08 be 7d 51 10 3e 36 32 58 bd e4 60 e0 bd
       -0.13304129 0.14093585 -0.05278226 -0.109559804
0001f0 45 d6 db 3b ae 6e 00 3e 9a 7b 9b 3d b6 da 35 3d
       0.0067088925 0.12542221 0.075919345 0.044398032
000200 30 f0 bb 3d 98 15 08 be b7 a4 b9 bd ab af 29 be
       0.091766715 -0.13289487 -0.0906462 -0.16570918
000210 2e 67 e7 bd 5b dd 0c 3e 12 9e e0 3d 1f 7c b9 3d
       -0.11298977 0.13756315 0.109676495 0.09056877
000220 ea 80 0f 3e d7 a0 c8 bd b0 7f 24 3e 5d 63 66 3d
       0.1401402 -0.09796303 0.16064334 0.056247104
000230 cc 2c 8d 3d d6 3d 72 bc ef 01 b7 3d af 45 4c 3d
       0.0689331 -0.014785251 0.08935916 0.049871143
000240 df 3b 19 be 7d 18 09 3d c6 45 24 be ce fd cd 3d
       -0.14964245 0.03347062 -0.16042241 0.10058175
000250 d2 3d ce 3d 96 bc 80 3d 40 a6 f4 bd 90 d4 c3 bd
       0.10070385 0.0628597 -0.11945772 -0.095620275
000260 28 dc 1c be 11 c0 1a 3c a8 2b 03 3e fd 9f 45 3d
       -0.15318358 0.009445206 0.12809622 0.04824828
000270 22 72 8f 3d 81 4b c8 3d ac d6 ed 3d 3f 37 79 3d
       0.07004191 0.09780026 0.11613211 0.060843702
000280 8b 3c 36 bd 98 bf c6 3c 6d e5 26 be 9b bd 4d bd
       -0.044491332 0.02426128 -0.16298456 -0.05022965
000290 b8 07 27 3d ed e7 2f bd 10 7c fa 3d 6f 68 1c be
       0.040778846 -0.04294579 0.12230694 -0.15274213
0002a0 5a 18 7a 3d 4e 1c 87 3c d0 af 26 be d0 f4 65 bc
       0.06105838 0.016492989 -0.16278005 -0.014035419
0002b0 8f 64 80 bb 0c 3a 66 bc 26 e4 14 3d 9c 7d 1d be
       -0.0039182375 -0.014051925 0.03635039 -0.15379947
0002c0 4f 0a 25 be 32 f5 c0 3d 2d 91 3b be 6a 78 01 3e
       -0.16117214 0.09421767 -0.18317099 0.1264359
0002d0 e3 39 74 bd fc 04 56 bd 3d 94 d5 bd ea ef f7 3d
       -0.059625518 -0.052250847 -0.10428665 0.12106307
0002e0 45 8e 28 3e 94 dc 24 be 1f bc 2b be df e9 a7 bc
       0.16460522 -0.16099769 -0.16770981 -0.02049726
0002f0 fa 18 9c 3b 4b 55 ea bc 5e 23 71 3d 7e 0e c9 3d
       0.0047637196 -0.028605124 0.05887162 0.09817217
000300 b2 ea 2b be 09 64 6d 3c a1 8f 2a bd 3d 7f 23 3d
       -0.16788748 0.014489182 -0.04164088 0.039916266
000310 c6 68 a8 bd a6 b9 13 3e 25 10 0e 3e 54 ef 96 3d
       -0.08223109 0.14426288 0.13873346 0.07369867
000320 25 09 89 3d 24 25 28 3e 8e 6e 7e bd 33 63 c3 3d
       0.06691197 0.16420418 -0.062117152 0.09540405
000330 bf 54 b0 bd 45 03 23 bd 60 07 4f 3d a3 22 2a 3e
       -0.08609914 -0.03979804 0.050544143 0.16614775
000340 fb ff f0 bd 71 ef a6 bd f9 7c ce bd 80 66 df bd
       -0.117675744 -0.081511386 -0.100824304 -0.10908222
000350 be e9 f3 bd 97 8b 50 bd 7d 51 10 3e 41 f7 3e 3d
       -0.11909817 -0.050914373 0.14093585 0.04662252
000360 0f 90 8f 3d a8 65 f8 3c 1d 74 96 3d ed 1f 43 bd
       0.07009899 0.030321911 0.073463656 -0.04763787
000370 4a 04 d5 3c 21 9f 8d 3d cd ad 86 3d eb 12 83 bd
       0.026003022 0.06915117 0.065761186 -0.06400093
000380 56 30 e3 bc 4c 8f dd 3d 13 6e 1d be 83 64 5e bc
       -0.02773301 0.10818347 -0.15374021 -0.013573769
000390 9f d8 29 be 8d a3 87 bd d7 ba 4d bd 51 dd df bc
       -0.1658654 -0.06622992 -0.050227012 -0.027327212
0003a0 ae 02 07 3d ed 33 7e bc bc c9 b2 3d db 84 3f bb
       0.03296154 -0.01551531 0.08729884 -0.0029223475
0003b0 53 b3 a7 3d bf 44 e5 bd 12 bd 08 be 77 f0 f7 3d
       0.081885 -0.11194753 -0.13353375 0.12106412
0003c0 14 bb 12 be bd 66 5b bd bc 25 a7 bc 73 7d d5 3d
       -0.14329177 -0.053564776 -0.020403735 0.10424318
0003d0 4f 5e 89 bb ad 08 28 3e 15 9a 5d 3d 7d f8 cc 3d
       -0.0041921507 0.1640956 0.054102022 0.10008333
0003e0 d0 67 f1 bd f1 0e c4 3d 83 0b d3 3d 11 fe da bd
       -0.11787379 0.09573162 0.1030493 -0.106929906
0003f0 3e 0f a8 bd 20 e0 0d 3e 0b aa c3 3d 1f 65 c6 bd
       -0.08206032 0.13855028 0.095539175 -0.09687256

encoder.egnn1.edge_mlp.2.bias f4 [32]
000000 73 a9 a7 bc 83 cd bc 3b 46 a7 74 bd 37 b0 de 3d
       -0.020466542 0.0057618036 -0.059729837 0.10873454
000010 e6 d1 f8 bd b7 20 1e bc 6e 50 15 be be 5c 19 3e
       -0.1214941 -0.0096513545 -0.14581463 0.14976785
000020 d1 6f 17 3e 9a 0f 39 3e a5 82 80 3b ea 0b 31 be
       0.14788748 0.18072358 0.003921824 -0.17289701
000030 1c ec 26 3d 3c 0b 51 bd e7 2b 70 3d d1 f6 21 be
       0.040752515 -0.051036105 0.05863562 -0.15816809
000040 54 9f 2b bc 7f 75 f9 3c 77 e3 01 3d 0c 18 3e 3d
       -0.0104749985 0.030451534 0.031711068 0.04640965
000050 09 a9 71 bd 74 d0 de 3d a1 45 2b 3e 9f ae 10 3d
       -0.058999095 0.10879603 0.1672578 0.03532278
000060 9e c0 18 3e 4e ea 83 3d e2 96 32 be cf 52 d5 3d
       0.14917228 0.064411744 -0.1744037 0.10416185
000070 7a fe 25 3e d8 49 16 bc 44 e7 d6 3c f8 05 37 3e
       0.16210356 -0.009172879 0.026233323 0.1787337

encoder.egnn1.node_mlp.0.weight f4 [32, 34]
000000 82 4b 96 3d c6 03 cb 3d c7 f3 c7 3d c0 34 30 3e
       0.07338621 0.09912829 0.09763294 0.17207623
000010 42 d7 b5 3d 7c 3c 02 be c9 b8 fa bd e3 5a c6 3d
       0.08878948 -0.12718385 -0.12242276 0.09685304
000020 f2 e5 fa bd 8e 6d 13 3d ac a8 fa b9 87 03 22 be
       -0.1225089 0.03599315 -0.00047809386 -0.15821658
000030 26 c1 d5 3d 40 73 ee 3d 99 e1 ca bc 85 6e af 3d
       0.10437231 0.11643076 -0.024765776 0.08566002
000040 96 1d e3 3c 11 c9 13 bd e7 8f 28 3e 29 e6 23 3e
       0.027724069 -0.036080424 0.16461144 0.16005768
000050 30 8a 51 bb 56 a5 d5 bb a6 7a bb bd b7 44 fd 3d
       -0.0031973235 -0.0065199537 -0.09154253 0.12366622
000060 80 01 15 be cd 1d 23 be 05 ed 27 be de 5e cb bd
       -0.14551353 -0.15929337 -0.1639901 -0.09930204
000070 d8 8a 0b 3d 1e 15 84 3d ac bc ba 3d ff 1b 8a 3c
       0.03406796 0.0644934 0.091180176 0.016859053
000080 71 cf 20 be 07 2d 27 3e d2 c5 03 bc e9 61 2d be
       -0.15704133 0.1632577 -0.0080427695 -0.16931881
000090 6a b3 32 be fb 04 9b bd 76 53 9b 3d f9 d5 c7 bc
       -0.17451254 -0.07569309 0.07584278 -0.024394022
0000a0 7f de 20 3e a2 c3 00 3d 58 a1 4f 3d 3e 3d c5 bd
       0.15709876 0.03143657 0.05069098 -0.09630822
0000b0 5e 52 10 3a 2c a4 d2 bd 12 9d 79 bd 7b ef 05 be
       0.0005505438 -0.102852196 -0.06094081 -0.13079636
0000c0 92 a7 83 b9 a7 0e 23 3e e5 ab 0f 3e 85 66 79 3d
       -0.00025111117 0.15923558 0.14030416 0.060888786
0000d0 87 95 13 be 47 9b fb 3d 89 4e 19 3c a3 39 b8 3d
       -0.14412509 0.12285476 0.009357103 0.08995368
0000e0 2a dd ce 3d b9 c3 23 3e ff 54 44 3d d8 1b 15 be
       0.101007774 0.15992631 0.04793262 -0.14561403
0000f0 a6 b5 a2 3d 4a da 23 bd dc 7b 01 be 71 6a d4 bb
       0.07944803 -0.0400031 -0.12644905 -0.0064824154
000100 d4 48 3e 3c 6e 2e 5e 3d 3d 17 30 bd cc 03 87 3d
       0.011614043 0.054243498 -0.04299091 0.06592521
000110 80 81 1c be a6 19 de 3b 7e d4 ec bd 8f 53 11 3d
       -0.15283775 0.00677796 -0.11563967 0.03548008
000120 db b8 17 3e 31 64 c4 bd 28 e4 18 3d a4 68 2a 3e
       0.1481661 -0.095894225 0.03732696 0.1664148
000130 cf 00 e0 3d 50 27 61 bd d8 ca bc b9 f7 c2 de bd
       0.10937654 -0.054969132 -0.00036009285 -0.1087703
000140 fc 49 99 3c 8a cb 1e 3e 70 32 05 be 8f 78 8a 3d
       0.018712036 0.15507331 -0.13007522 0.06761276
000150 7f 0e de 3d 71 13 14 be 94 b3 bb 3c fb 96 04 3d
       0.10842609 -0.14460541 0.022912778 0.03237055
000160 be 58 81 3d c0 f2 0a 3e 05 2a 0f bd 2f b1 19 bd
       0.06315754 0.13569164 -0.034952182 -0.03752249
000170 c1 40 97 3d e2 ce 09 3e f2 39 ca 3c 8c 1a 53 3b
       0.07385398 0.13457826 0.024685834 0.0032211868
000180 65 d4 19 bc f1 e9 bb 3d 5c c7 08 3e 35 ec b3 bd
       -0.009389018 0.0917548 0.133573 -0.08785287
000190 63 82 1a be b8 6f 9a 3c 89 48 0a be ee 45 d9 3d
       -0.15088801 0.0188521 -0.13504232 0.10609041
0001a0 04 10 11 be 61 5f 3d 3d 3f e4 07 3e eb f2 a6 3d
       -0.14166266 0.04623354 0.13270663 0.08151802
0001b0 24 ad 73 3d dc 49 bc bd 36 e1 c2 bd 59 80 19 3e
       0.05949129 -0.09193775 -0.09515612 0.14990367
0001c0 63 58 71 bd 18 cf de 3d b6 63 09 be 1b 4c cc bd
       -0.058922183 0.10879344 -0.13416943 -0.099754535
0001d0 64 f4 23 3e cd a0 a2 bd ed 77 2d 3d b3 14 e1 bc
       0.16011196 -0.079408266 0.0423507 -0.02747569
0001e0 9e 95 82 3d 3c 67 27 3d f9 99 ad 3d 4e c3 c8 bc
       0.063761935 0.040869936 0.084766336 -0.024507191
0001f0 28 fb 68 3d 45 b1 2e 3e d4 ad 0d bd cc 4b c4 bb
       0.056880146 0.1705981 -0.034589604 -0.005990481
000200 c3 71 33 bd 75 08 f5 3d 10 ef cc bd 98 99 b6 3d
       -0.043809664 0.11964504 -0.10006535 0.089160144
000210 c5 2b 60 3d 52 42 43 3c 7f 01 12 3e ec 71 1f 3e
       0.054729242 0.011917667 0.14258383 0.15570801
000220 3f 39 0a 3e 83 5b 0d be aa ec d0 3d 3f 80 8d 3d
       0.134984 -0.1380444 0.1020139 0.069092266
000230 a5 4b 93 3d 9c de 83 3c f1 ae d3 3d 10 c6 a5 3c
       0.071921624 0.01609736 0.10336102 0.020236045
000240 b8 9c c9 3d 6e cf 87 3b 81 ca be bd 06 d0 95 bd
       0.09844345 0.0041446006 -0.09315968 -0.07315068
000250 e1 a5 05 3e 5b 27 83 3c c3 39 e0 bd 41 71 80 3d
       0.13051559 0.016009977 -0.10948517 0.062716015
000260 48 2c 6a bd 1f 4e 6a 3c 1c 69 02 be d6 8b 8b 3c
       -0.057171136 0.014300852 -0.12735409 0.017034452
000270 02 72 11 3d 6d 30 5d 3d cc 6a 88 bd e5 45 11 3c
       0.035509117 0.05400126 -0.06660995 0.008866762
000280 13 97 fe bd 96 64 0a 3e 3f 2f bd 3d 23 51 09 3e
       -0.12431159 0.13514933 0.09237527 0.13409857
000290 49 df 2c be 7d 17 1f be 22 41 08 be eb 9f b8 bd
       -0.16882052 -0.15536304 -0.13306096 -0.09014877
0002a0 45 5a 0d 3e 4c 9a df bd 52 e3 ee 3c 22 52 4b 3c
       0.13803966 -0.10918102 0.02916113 0.012409719
0002b0 2b 52 81 bd 2d 62 1a be d3 95 0e 3e 77 14 bb 3d
       -0.063145004 -0.15076514 0.13924341 0.09134763
0002c0 a3 af b2 bd 12 bc 5e 3d 3d ea 1f 3c e5 54 51 bc
       -0.08724906 0.054378577 0.009760437 -0.012776588
0002d0 3f 99 ec 3d 35 4e 54 3d 5d d5 fd 3c 22 b8 81 bd
       0.11552667 0.051832397 0.030985529 -0.06333949
0002e0 7e 16 af bd 4e 84 2a 3c 89 2d 9f bd b9 9c 0b 3d
       -0.08549212 0.01040752 -0.07772357 0.03408501
0002f0 1d 77 8a bd d0 4f a3 3d 58 e0 ed bd ce 21 c9 3b
       -0.06761 0.079742074 -0.11615056 0.006138063
000300 11 31 83 3d 5e 4f c8 bd 7e d3 90 bd d0 de 40 bd
       0.06405843 -0.09780763 -0.07071589 -0.04708749
000310 08 04 1f be b8 37 ee 3d 22 41 af bd de 74 e8 bd
       -0.15528882 0.11631721 -0.08557345 -0.11350416
000320 b9 58 8e 3d 79 74 2f be 51 b6 9b 3c f2 fc cd bd
       0.06950516 -0.17134275 0.019007834 -0.10058011
000330 bf b1 09 3d 07 8b 02 3e 65 53 02 be 6a 2c c3 bd
       0.033616778 0.12748347 -0.12727125 -0.09529956
000340 76 a8 f5 3c a5 37 16 3e 2f f8 fc 3d 69 91 2b be
       0.029987555 0.14669664 0.12352025 -0.16754688
000350 77 84 01 be 6f 4c f6 3d c7 4d 4c 3d 1f 7c 9f 3d
       -0.12648188 0.12026297 0.04987886 0.07787346
000360 99 6a 1d 3e 24 17 c0 3d fd 79 d4 bd fa ad 91 bd
       0.15372695 0.09379414 -0.1037483 -0.071132615
000370 2b 4e eb bb 0c 53 27 3e 3a 4c d6 bd a1 00 da bd
       -0.007180949 0.16340274 -0.10463758 -0.10644651
000380 33 5e 8d bd c9 1d e8 3d 9c 0d 70 3d 30 3e 12 3e
       -0.06902733 0.11333806 0.05860673 0.14281535
000390 f9 0f 6b bd c0 8e da 3d a9 b9 c2 3d 41 e8 05 3e
       -0.05738828 0.10671759 0.09508068 0.13076879
0003a0 98 5b 02 be b2 1e 9e bd 82 bb df 3d dd 8a 07 be
       -0.12730253 -0.077206984 0.10924436 -0.13236566
0003b0 89 f9 c1 bd 47 5d 0a 3e d5 3b b5 bd d7 50 ab bd
       -0.09471423 0.13512145 -0.08849303 -0.08365028
0003c0 26 ae c6 bd a0 a2 d9 3d d7 69 ea 3c a6 68 f5 bc
       -0.09701185 0.106267214 0.028614921 -0.029957127
0003d0 b9 5f 44 bc 05 c3 23 bd e2 cc 89 bd e5 cd d6 bd
       -0.011985713 -0.039980907 -0.067285314 -0.1048849
0003e0 5f 82 9d 3d e3 11 c0 3c 8a bd a2 3d c9 d5 17 3e
       0.07690882 0.023446029 0.07946308 0.14827646
0003f0 83 34 1b be 93 3f 6c 3c 79 98 03 bd 5b 02 77 bd
       -0.1515675 0.014419454 -0.03212783 -0.06030498

encoder.egnn1.node_mlp.0.bias f4 [32]
000000 eb 99 9a bd ae 08 1f 3d 76 ba 25 3e cc 8d 1d 3c
       -0.07548889 0.038826637 0.1618441 0.009616327
000010 fa a5 1e 3d 86 f0 68 bd ba f7 1d 3d 8b 84 9e bd
       0.038732506 -0.056870006 0.03856633 -0.07740124
000020 3a 3a a2 bd 81 8d 3a bd d4 87 d7 bd 6a 95 b0 3b
       -0.07921262 -0.045545105 -0.10523954 0.0053889053
000030 2f 46 a2 3c fd 50 6d bc d5 88 e2 3d 0b 66 b1 3d
       0.019808857 -0.014484641 0.11061255 0.08662041
000040 6f 4f c0 bd 9f 4e 1f 3e ee cc dd bd 32 28 26 be
       -0.09390151 0.15557335 -0.10830103 -0.16226271
000050 b7 f5 ee 3c ae 1b 9c 3d 0d 1a 0b be 51 68 06 3e
       0.0291699 0.07622467 -0.13584156 0.13125731
000060 a0 7f ba bd a7 7a ca bd 20 be 13 bd 73 9c f4 bd
       -0.09106374 -0.09886675 -0.03606999 -0.11943903
000070 22 5b a3 bd d8 1a 5d 3d a8 97 05 be b2 a8 1e bd
       -0.079763666 0.05398068 -0.13046134 -0.0387351

encoder.egnn1.node_mlp.2.weight f4 [32, 32]
000000 9e a4 13 be 36 fb 91 bd 76 53 0a 3d aa 72 24 3e
       -0.14418265 -0.07127993 0.033771 0.16059366
000010 4f bd d7 3d 66 f0 0a be 23 32 fb 3d fc e5 94 3d
       0.105341546 -0.13568267 0.12265422 0.072704285
000020 c5 62 cc 3d 92 89 91 3b ef 46 9e bd 14 1c cc bd
       0.09979776 0.0044414485 -0.07728373 -0.09966293
000030 48 18 b0 3c 30 a3 6a bd b4 24 92 bd a0 80 02 3d
       0.021495953 -0.057284534 -0.07135907 0.031860948
000040 78 92 d4 3d ec cc 8b bd 1e 11 60 bc 58 02 36 3e
       0.10379499 -0.06826195 -0.013675956 0.17774332
000050 70 36 99 bd b7 b4 04 3e 2b 63 c6 3c 62 07 ed 3d
       -0.07481086 0.12959562 0.024217209 0.11573674
000060 fa ba 74 3c 60 fd 3f bc 55 db c3 3d 34 1d 03 3e
       0.014937157 -0.011718124 0.09563319 0.12804109
000070 3f 59 14 3e 8f 11 81 bd f6 5e 21 be 1e 99 a7 ba
       0.1448717 -0.06302177 -0.15758881 -0.0012786721
000080 92 67 20 3e 5c b1 9d bb 6a 66 29 3e 20 3c b4 bd
       0.15664509 -0.0048124027 0.16542974 -0.088005304
000090 63 d5 66 bc 70 17 02 be eb b9 8a 3c 28 37 6b 3d
       -0.014088961 -0.12704253 0.016934356 0.057425648
0000a0 64 bd 0b be a6 af b2 3d 2a 9d 03 3e 68 63 ec bd
       -0.13646466 0.087249085 0.12852922 -0.11542398
0000b0 d3 d8 22 be a9 f2 2d 3e 27 ee d3 bd 91 7d be bd
       -0.15903024 0.16987099 -0.10348158 -0.09301294
0000c0 db 6f 03 bd 53 44 b5 3c 4c 47 8b bd fe af 77 bd
       -0.032089096 0.022127306 -0.06800708 -0.060470574
0000d0 14 c7 9f 3c 8c 95 03 be 3d cb be bd d8 b1 44 bc
       0.019504108 -0.12850016 -0.093161084 -0.012005292
0000e0 a6 12 52 bc ab c8 18 bd e6 99 2e be 77 6f 04 be
       -0.012821829 -0.037300747 -0.17050895 -0.12933145
0000f0 33 77 74 bd 9d 23 2c bd f2 d9 c4 bc b5 50 ea bd
       -0.05968399 -0.04202615 -0.024029706 -0.11441175
000100 86 fe a5 bd 3b 81 77 3d 23 ca 88 bd 10 f6 3f 3d
       -0.08105187 0.06042598 -0.066791795 0.046865523
000110 e0 b7 23 be a6 fc 4d 3d 77 ac 0b be a0 1f 7c bd
       -0.15988111 0.050289772 -0.13640009 -0.061553597
000120 ed d1 c6 bd 6f cc 9b 3b 97 f6 e8 bc 50 52 98 bd
       -0.09708009 0.004754595 -0.028437896 -0.07437575
000130 6c cb e2 3c 1c 78 f4 3d 8c 68 f1 3d dc c7 1e 3e
       0.02768489 0.119369715 0.11787519 0.15505928
000140 ef ae d2 3d a9 12 47 bc 56 20 56 bd c1 59 ee bc
       0.10287272 -0.012150445 -0.05227693 -0.029095532
000150 54 75 7e bc 0e 3d c8 3b 28 23 0b be 35 39 12 3e
       -0.015530903 0.006110794 -0.1358763 0.14279635
000160 99 fd 0f be fa 80 e0 bd 4d ef cf bd e7 51 04 be
       -0.14061584 -0.109621 -0.10153065 -0.12921868
000170 02 fc 79 bd e9 87 2e be 72 be eb bd 4e e3 2a be
       -0.06103135 -0.17044033 -0.11510934 -0.16688272
000180 2f 71 f6 bd 70 b4 2f be ba e6 8f 3d f7 37 20 be
       -0.12033307 -0.17158675 0.070264295 -0.15646349
000190 37 59 f8 3c 2d e4 22 be d6 6c 6c bd 68 fa e3 bd
       0.030315978 -0.15907355 -0.05772098 -0.111317456
0001a0 a1 1b fd 3d 6a b6 d6 bd 9f 92 35 be d3 b8 fa 3d
       0.123587854 -0.104840115 -0.17731713 0.12242284
0001b0 9b 67 1d be 83 25 fa bd cc 86 12 be e6 15 36 bd
       -0.15371554 -0.12214186 -0.14309233 -0.044454478
0001c0 55 18 bb 3d 19 a4 1a be 85 c5 0d be 1a ef 48 3c
       0.091355 -0.15101661 -0.13844879 0.0122640375
0001d0 31 60 bf 3d ab d9 2a 3d 02 1a b5 ba 68 d8 ec 3d
       0.09344519 0.04171149 -0.0013816955 0.11564714
0001e0 69 05 ed bd 74 7d 8e 3d 09 51 8c bd a6 69 ca 3d
       -0.115732975 0.06957522 -0.06851394 0.09883432
0001f0 d9 f5 0a be 65 0e e1 3b 90 f0 ad 3d 48 3d 83 3d
       -0.13570346 0.006868171 0.08493149 0.06408173
000200 2a 69 5e 3d b1 ee 96 3d 4f 8a 83 bd 89 5d 09 3c
       0.05429951 0.073697455 -0.06422865 0.008384117
000210 7c b2 ca 3d d7 a5 dc bd 60 14 8d bc 2b a1 14 be
       0.098973244 -0.10773819 -0.01722163 -0.14514606
000220 77 92 33 bd 48 a2 11 3e 7c f9 b5 bd c0 d7 88 bd
       -0.04384085 0.14222062 -0.08885476 -0.06681776
000230 f0 dd a2 3d 62 96 94 bd a7 3a 55 bc ce a6 84 3b
       0.079524875 -0.07255246 -0.013014472 0.004048205
000240 51 ab 67 bd 4e ef 21 3e db 95 21 be f7 76 a0 3d
       -0.056559864 0.15813944 -0.15779822 0.07835191
000250 83 85 0e be db 5f 04 3e 43 99 a6 3d 8a 32 00 3e
       -0.13918118 0.12927191 0.08134701 0.12519279
000260 40 58 14 be 47 0c 11 bc 03 69 cf 3d 07 7a 12 3e
       -0.1448679 -0.008853025 0.10127451 0.14304362
000270 07 b6 d3 bc 2e 60 3b 3d 5e 60 a3 3b 12 85 12 be
       -0.025843633 0.04574602 0.004985853 -0.14308575
000280 e4 06 bb 3b b1 5b 31 bd 2a a8 1b bc 84 ae 04 be
       0.0057076085 -0.043300334 -0.009500543 -0.12957197
000290 9f 87 d2 3d 3d a1 78 bd 9a 17 3d 3e da e5 a9 3d
       0.10279774 -0.060700644 0.18466035 0.08295794
0002a0 65 b2 b6 bd cd d3 21 3c 93 2f f2 bd ab 45 8e 3c
       -0.08920745 0.009877157 -0.1182548 0.017367205
0002b0 48 05 b5 bc d4 ee 32 3e f2 79 93 3d 64 8a b6 3c
       -0.022097245 0.17473918 0.072009936 0.022282787
0002c0 f4 e2 a9 3d be 91 20 3e 08 96 fa 3c 2e bf 6f 3d
       0.08295241 0.15680596 0.030589119 0.058531933
0002d0 f4 62 86 3c 0c b2 0f 3e 58 dc a4 bd 55 11 58 3d
       0.016404606 0.14032763 -0.0804984 0.052750904
0002e0 74 30 0d be d4 bd 90 bb 12 1d d3 3b ac 16 18 be
       -0.13788015 -0.0044171605 0.0064426744 -0.14852399
0002f0 60 03 b9 bd cc 5f 1b 3d 27 5a 28 be c6 81 83 bd
       -0.09033847 0.037933156 -0.1644064 -0.06421237
000300 ed 02 5a bd a3 42 21 3e 8b 57 19 3d ab e5 f6 bc
       -0.053225446 0.15748076 0.037437003 -0.030138811
000310 a9 a2 9c bd 1e a8 13 3d 52 56 0a be 5d 34 d4 3c
       -0.076482125 0.036049 -0.13509491 0.025903875
000320 6d b1 ce bd 89 39 25 be b8 9c de bd 4e 1e d2 3b
       -0.10092435 -0.16135229 -0.108697355 0.006412304
000330 d4 6c 04 be 8e 43 af bb 44 2c a1 bd 7d af 24 3e
       -0.1293214 -0.0053486293 -0.07869771 0.16082568
000340 0d 4a e3 bd d4 94 11 be 10 7d f0 3c 30 57 5a bd
       -0.110981084 -0.1421693 0.02935651 -0.053305805
000350 69 fd 8f 3d e5 38 8a bc 6a 2b 06 be df 08 93 bc
       0.07030756 -0.016872833 -0.13102499 -0.017948566
000360 ed 97 99 3d ff a1 0e 3e 46 c2 97 3d d7 61 ae 3b
       0.07499681 0.13928984 0.074101016 0.005321722
000370 6a f4 34 be cc e1 08 3d 1d 7a 93 bd 77 e6 16 3e
       -0.17671362 0.03341846 -0.07201026 0.14736353
000380 2b 6d b5 3c 28 fd 99 bd 0d 9f b0 bc 63 43 15 3e
       0.022146782 -0.07518989 -0.021560216 0.14576487
000390 30 d6 ab 3d 2f 79 06 be bc 1b 1c 3d 68 59 2f 3e
       0.083904624 -0.13132165 0.038112387 0.1712395
0003a0 83 9a 21 be 49 0d e8 3d 63 38 a2 bd 84 f4 28 bd
       -0.15781598 0.11330659 -0.07920911 -0.041248813
0003b0 07 ce ab bd 53 aa fe 3d f2 ee 6c 3d 61 d2 96 bd
       -0.08388906 0.124348305 0.057845064 -0.07364345
0003c0 d5 2f 0e 3e aa ea 51 bd c1 8c f9 3d fb db d0 bd
       0.13885434 -0.051249184 0.1218505 -0.10198208
0003d0 7b f3 23 be e1 f3 2a be 4d 23 9f 3c c5 22 c2 bd
       -0.16010849 -0.16694595 0.019426012 -0.09479288
0003e0 93 dc 42 bd e9 0f fb 3d 8d 97 13 3d 98 92 ce bd
       -0.047573637 0.12258894 0.036033202 -0.10086554
0003f0 78 64 28 bd 26 c6 80 3d d2 ca 5f bc 92 ea 2c be
       -0.04111144 0.06287794 -0.013659196 -0.16886356

encoder.egnn1.node_mlp.2.bias f4 [32]
000000 78 3c 33 3e 61 d8 be bb ae 3c 08 3e 53 96 9f bc
       0.17503536 -0.005824134 0.13304397 -0.01948086
000010 56 a9 30 be bd 46 17 be d6 94 01 be c2 5f 25 be
       -0.17252097 -0.14773078 -0.12654433 -0.1614981
000020 50 11 80 3d 19 5c 17 3e 52 dc 2f be 4f b7 00 3e
       0.06253302 0.14781226 -0.1717389 0.12569927
000030 37 cd 40 bd 61 53 fe 3b 64 58 00 3c fa e7 b1 bd
       -0.047070708 0.0077614044 0.007833574 -0.08686824
000040 12 1f 91 3d 47 41 8d 3b 99 4a 8e 3d f3 d5 1e be
       0.07086004 0.00431076 0.06947822 -0.15511303
000050 2d 3f 03 be 94 05 87 bd 24 51 0b bd 06 10 59 bd
       -0.12817068 -0.06592861 -0.03401293 -0.052993797
000060 bd cb b1 3d d9 2c 81 3d 60 0b 78 3d a3 24 7f 3c
       0.08681438 0.06307382 0.060557723 0.0155727
000070 38 d7 20 3e e9 67 05 3e 5e a5 ad 3c 4f 79 30 3e
       0.157071 0.1302792 0.021197017 0.17233776

encoder.egnn2.edge_mlp.0.weight f4 [32, 65]
000000 66 53 47 bd c0 0c c7 3b 01 49 67 bb 8b ab c6 bd
       -0.04866352 0.006074518 -0.0035291316 -0.09700688
000010 dd 1c 65 3d e4 11 8f bd 3e 3e 94 3d d0 06 90 3d
       0.05593573 -0.06985834 0.07238434 0.070325494
000020 9e a9 a5 bc ba 87 db bd 7e 70 27 bc 19 d1 e1 bd
       -0.020222481 -0.10719247 -0.010219691 -0.1102621
000030 fa f2 2f bc ad 59 22 3d 13 7e e8 3d 8c b9 f7 3c
       -0.0107390825 0.039636303 0.11352172 0.030239843
000040 c2 90 c6 bd b6 db 8c 3d 5f a9 be bd 4d bb 30 3b
       -0.09695579 0.06877844 -0.09309649 0.0026967109
000050 2a e6 d4 bc 53 6b 45 3b 2c d0 c8 bd 8e 04 a7 3d
       -0.025988657 0.0030123785 -0.09805331 0.081551656
000060 86 2e ab 3c f4 aa fa 3d 6f 4e b3 bd 58 0d a1 3d
       0.020896208 0.12239638 -0.087551944 0.07863873
000070 af 75 bc bd 3a 13 15 3d 44 c4 c3 3c 9a 91 ac bd
       -0.09202134 0.03639529 0.023897298 -0.08426209
000080 03 59 88 bd f1 3e 7a 3d 65 8c 6c bd 26 68 b2 bd
       -0.06657603 0.06109518 -0.05775108 -0.08711271
000090 a5 38 ae bd 52 c5 5e 3d 72 4d 51 bc 8f c2 44 bc
       -0.08506898 0.054387398 -0.012774812 -0.012009277
0000a0 72 24 92 3d d4 90 78 bd f7 c0 c1 3d 79 74 aa bd
       0.07135858 -0.060684994 0.09460633 -0.08322997
0000b0 78 03 94 bd da 2b ad bd b2 ed 60 bd 47 9a 00 be
       -0.07227224 -0.0845563 -0.054914184 -0.12558852
0000c0 18 31 c6 3b 78 7b 02 3d dc 11 bb bd 92 6b ae bd
       0.006048333 0.03185603 -0.09134266 -0.08516611
0000d0 05 8b 72 bd 2b e0 98 bc 4b 3b ec 3d c4 bb cf bd
       -0.05921461 -0.01866158 0.11534747 -0.10143235
0000e0 02 d7 df bc 2c 3e 93 3d 12 d1 85 3d eb 18 20 3d
       -0.027324203 0.07189593 0.065340176 0.039086264
0000f0 b7 ad 13 bd 5c ad 8a bd a0 9d ff 3d 25 a3 97 bd
       -0.03605434 -0.06771347 0.124812365 -0.07404164
000100 5f 8b 64 bd e7 51 ce 3d 14 0e 05 bd 09 42 f1 bd
       -0.055796977 0.100742154 -0.03248413 -0.11780173
000110 c4 17 35 3d af 69 a5 3c 52 12 f0 3d a2 44 9d 3d
       0.044212118 0.020191995 0.11722244 0.07679106
000120 f8 ed dd bd b6 dc 52 bd 06 69 5d bc f3 25 e2 3d
       -0.108364046 -0.051480018 -0.013513809 0.110423945
000130 36 e3 a9 b9 61 1b 7a bd 02 51 08 bd 17 dd 73 bb
       -0.00032403477 -0.061061267 -0.03328038 -0.0037210637
000140 a7 40 89 3d 23 9b f8 3d d1 ae e6 3d 2a 2e b9 bd
       0.067017846 0.12138965 0.11263812 -0.09042008
000150 90 f7 d2 ba d7 ad b4 bd cc 32 cb bd 92 04 96 bd
       -0.0016095508 -0.0882222 -0.09921798 -0.073250905
000160 ab 51 3b bc 5b 46 5f 3d 82 64 33 bc 24 43 e2 bd
       -0.011433045 0.054510456 -0.010949256 -0.11047962
000170 62 af 43 3d 6a bd 00 bd f8 4c 2d bd e5 c5 53 bd
       0.04777468 -0.03143064 -0.04230973 -0.0517024
000180 16 c0 e6 bd 66 54 89 bd cc 64 c9 3d 2c 08 3e bd
       -0.11267106 -0.06705551 0.098336786 -0.046394512
000190 18 c6 8c bc 4e 83 a4 bd 06 06 14 3d 5b cb ac bd
       -0.017184302 -0.08032857 0.036138557 -0.084372245
0001a0 f1 c2 aa bb 14 cf 67 bd 0f 9e dc 3c 6e 73 b0 bd
       -0.005211227 -0.05659397 0.026930837 -0.086157665
0001b0 27 8f 7a bc 34 e1 21 3c c4 19 8d bd 11 c6 ac 3d
       -0.015292919 0.009880353 -0.0688968 0.08436216
0001c0 d6 e3 f5 bd c5 ff d4 3d cf db c3 bd 7f 3a 82 bd
       -0.12006347 0.10400347 -0.095634095 -0.063588135
0001d0 98 98 a0 bd c5 db 8e bd d1 39 58 3d 04 8c 8e bc
       -0.07841605 -0.069755115 0.052789513 -0.017400749
0001e0 02 59 85 3d 9d a6 13 3d 05 ce c8 3d a7 32 dd 3c
       0.065111175 0.036047567 0.0980492 0.027001692
0001f0 28 3b 42 bd ac 27 a5 bd 59 b2 1e bd 6f b7 a1 3d
       -0.047419697 -0.080642074 -0.038744304 0.07896315
000200 e8 7d 13 bd c1 c6 98 bd a2 11 06 bd 0e f1 9e 3d
       -0.036008745 -0.07459784 -0.03273166 0.07760821
000210 f9 5f 3b bd 15 c7 bd 3c c6 33 b9 3c 7e 3a d8 3d
       -0.045745824 0.023166219 0.022607695 0.105580315
000220 83 96 5f 3c 14 95 d2 3d 3f 1d cf 3d 54 3b 93 bd
       0.013646725 0.10282341 0.10113 -0.0718905
000230 dc 2b b2 bd 1f b0 21 bc 76 26 8f 3d ec f6 b6 3d
       -0.08699772 -0.009868651 0.06989758 0.08933815
000240 cd 85 41 bb 36 f4 1d 3d 32 2e a8 bd 28 dd db 3d
       -0.0029529214 0.038562976 -0.08211936 0.107355416
000250 83 dd 6b 3d ec 35 37 39 47 90 85 bd 96 2b 53 bd
       0.057584297 0.00017472327 -0.06521659 -0.05155524
000260 65 0f 37 bd 4a 02 b2 bd 4e 3d a3 bd 97 76 cb bd
       -0.044692416 -0.08691843 -0.07970677 -0.099347286
000270 cb 6d aa 3c dc 2e 32 bd 22 86 a4 3d ec 6b 57 bd
       0.020804306 -0.04350172 0.08033396 -0.052593157
000280 41 6f 2e 3d cf 00 ae bd 2f f8 f2 bd 04 3b aa bd
       0.04258657 -0.08496248 -0.118637435 -0.083120376
000290 da 84 21 bd f7 4c a0 3c e2 b6 4d bd 12 21 12 bd
       -0.039433338 0.01956795 -0.05022324 -0.03567607
0002a0 b9 2f d6 3d 7f d6 ba 3c c1 c1 ff 3d d0 23 1c bc
       0.10458321 0.022807358 0.124881275 -0.009530023
0002b0 62 7a b1 3d 54 f8 8d bd 97 50 81 3d 4c 03 ea bd
       0.08665921 -0.069321305 0.063141994 -0.1142641
0002c0 ec 53 8a bd e9 87 bd bd 08 4e 02 3d d3 b4 53 bd
       -0.06754288 -0.092544384 0.031812698 -0.05168612
0002d0 ed ef 40 bd 49 c1 6d 3d 21 74 fd 3d 69 d4 cb bd
       -0.04710381 0.05804566 0.123756655 -0.099526234
0002e0 44 4a 93 3d a6 40 0f 3d 2d 09 b2 bd 94 8c f6 bc
       0.071918994 0.034973763 -0.086931564 -0.03009633
0002f0 6d 82 be bc 4d 24 02 bd 89 56 cb 3c d2 99 84 bc
       -0.023255551 -0.0317729 0.024821537 -0.016186628
000300 35 2c 94 bd 9c 0c d7 bc 86 ce 0f bd d3 0a 58 3d
       -0.07234994 -0.02625113 -0.035109065 0.052744698
000310 23 35 c7 3d bb d1 ac bc ef 9f 98 39 3e c5 c1 bc
       0.09726932 -0.021096101 0.0002911086 -0.023653623
000320 33 e1 15 3d 4f bc e3 3d 29 66 60 bd 5f e2 d6 bd
       0.03659172 0.111199014 -0.054784928 -0.104923956
000330 69 db fb 3d f5 d4 34 bd 33 36 1d bd 20 f8 e7 bd
       0.122977085 -0.044148404 -0.038381767 -0.11326623
000340 97 7b be 3d b7 3e d9 3d 72 6f 92 3d 15 ed ad bd
       0.09300917 0.10607665 0.07150163 -0.084924854
000350 26 60 71 bd 5a f4 5a bc 62 86 f0 3d 6a 5c 02 bc
       -0.058929585 -0.013363922 0.117443815 -0.007956604
000360 d9 6c 73 bc f2 31 2a bd be de 0c 3d f7 3d bb ba
       -0.014857494 -0.041551538 0.03439211 -0.0014285435
000370 8e 9e 1c 3d dc 77 47 3b 77 83 3a 3d 8a d4 9f 3d
       0.038237147 0.0030436432 0.04553553 0.078042105
000380 ec 53 ac bd 3e 74 88 3d 6f 19 fd bd df 00 ad 3d
       -0.08414444 0.066627964 -0.12358367 0.08447432
000390 6d 0d f9 3d ac 87 dd 3d 15 55 d2 3d 4d 76 ce bc
       0.12160764 0.10816893 0.10270134 -0.025202895
0003a0 21 d5 a4 bd b4 51 b2 bd 89 12 69 3d 3c 61 a6 3d
       -0.080484636 -0.0870699 0.056902442 0.08124015
0003b0 74 80 81 bd de 44 a0 3d b0 60 5e 3d 18 7b a1 3d
       -0.063233286 0.078256354 0.054291427 0.078848064
0003c0 a8 6c cc bd f9 dc 96 bd 1c 67 0e 3c f2 b8 cf 3d
       -0.09981662 -0.07366366 0.008691575 0.101426974
0003d0 49 20 8e bc ee 47 87 3d d1 8a 90 3c 38 ee db bc
       -0.01734938 0.066055164 0.017644318 -0.02684699
0003e0 69 30 b3 bd 69 68 c7 3d d2 eb 95 ba 1f ec ac 3b
       -0.08749468 0.097367115 -0.0011438078 0.0052771713
0003f0 09 21 4f 3d 6d 1c 75 3c dc 4c 20 3d de 69 a3 bd
       0.050568614 0.0149603905 0.0391358 -0.07979177

encoder.egnn2.edge_mlp.0.bias f4 [32]
000000 b2 3b be b9 13 f9 f2 3d 94 f2 66 3d 84 82 de bd
       -0.000362841 0.118639134 0.056383684 -0.10864738
000010 0b 2b a6 3d 5e 8d 44 3d 51 c4 3d 3d 79 7d df 3d
       0.081136785 0.04798638 0.0463298 0.10912604
000020 4f 00 50 bd b8 fe fc 3c 25 4c 5f bd b4 5a b4 3d
       -0.050781544 0.030883178 -0.054515976 0.08806363
000030 f9 be 1c bd 24 6f f5 3c 62 ac 54 3d 91 04 8e 3a
       -0.038268063 0.029960223 0.05192221 0.0010835101
000040 39 79 cf 3d 8a f9 76 3d 42 14 5a bd 81 71 2a bd
       0.10130543 0.060296573 -0.053241976 -0.041612152
000050 30 0d 4e 3d ab db e7 3d ac f8 b0 bc d3 f0 b3 bd
       0.050305545 0.11321195 -0.021602951 -0.08786168
000060 b8 23 a4 3c 44 3c 7c bd d8 ed 92 3c 3b 34 ae bd
       0.020036563 -0.06158091 0.017935678 -0.08506056
000070 c2 64 1a bd 1f 50 de bd e8 bf 50 bd 92 f3 b7 3b
       -0.037693746 -0.10855126 -0.050964266 0.0056137526

encoder.egnn2.edge_mlp.2.weight f4 [32, 32]
000000 3a 4c 19 3e ad 0e 31 3e 1d 00 23 3e 29 d3 bb 3d
       0.14970484 0.17290755 0.15918012 0.09171135
000010 40 56 46 bd a6 f1 eb bb 84 63 20 be ce dc d5 bd
       -0.0484221 -0.0072004376 -0.15662962 -0.10442506
000020 c1 04 65 bb 47 a5 75 3b ae a9 0d 3e 2d 60 0b 3e
       -0.003494546 0.0037482546 0.13834259 0.13610907
000030 2e 2f bb 3d 08 cf 0e 3d 79 4d 8d 3d 0c 00 93 3c
       0.09139858 0.03486541 0.06899542 0.017944358
000040 87 99 39 3d 2b ad e0 bd 42 2d 12 3d df 66 21 3e
       0.04531243 -0.10970529 0.035687692 0.15761898
000050 77 9b e7 3d c7 22 df 3d 18 65 21 3e c3 04 93 bd
       0.113089494 0.10895305 0.1576122 -0.071786426
000060 3b 1c 2d 3e 12 cb 98 3d ab 0f 8b 3b 7a ae 2a be
       0.169053 0.074606076 0.004243811 -0.1666812
000070 9e 20 29 be a1 f2 c0 3c 76 27 f4 bd 8e 51 b6 3d
       -0.16516349 0.023553194 -0.11921589 0.08902274
000080 c9 8c 29 3e bd 57 ee bd f4 b5 bb 3d 82 5e 24 bc
       0.16557612 -0.116378285 0.09165564 -0.010032298
000090 50 b3 21 3e 4d 73 21 3d 4b 04 4c bd 95 85 00 3e
       0.15791059 0.0394166 -0.04980878 0.12550958
0000a0 ea 56 37 be f5 ac 22 3d 52 ed 11 3d 94 af 0c 3e
       -0.17904249 0.039715726 0.035626717 0.13738853
0000b0 a4 ba 7d 3d 46 b0 df 3d 28 6b c4 bb 2a 57 1b be
       0.061945572 0.10922293 -0.0059942193 -0.15169969
0000c0 c3 4d 18 3e 0b bc 3f 3c c2 28 52 bd d2 c2 13 be
       0.14873414 0.011702548 -0.0513084 -0.14429787
0000d0 4e 33 0c be 5c 69 a2 3d f5 7b 4d 3d 2f 91 21 be
       -0.13691446 0.07930252 0.050167043 -0.1577804
0000e0 a0 25 0e 3d 94 2f ca bd 54 ec 5c 3d 1a db 68 3d
       0.03470385 -0.09872356 0.053936318 0.056849577
0000f0 79 74 d4 bd 76 7e e3 3d bf 08 12 3e f1 66 9d bd
       -0.10373778 0.11108105 0.14261149 -0.0768565
000100 68 a3 27 3d e3 4f 0f 3e 49 fa 0d be 26 48 78 bc
       0.04092732 0.13995318 -0.13865007 -0.01515392
000110 38 0a cb 3d dd 43 cc bd 4c f5 10 3e 26 4b f2 3d
       0.099140584 -0.099738814 0.14156073 0.1183074
000120 98 16 04 be 85 5c 00 be 32 e2 fb 3d c4 a9 ed 3d
       -0.12899244 -0.12535293 0.12299003 0.11604646
000130 5f 87 b9 3d 4f cc e2 3d eb e9 02 3e 9f b5 1f 3c
       0.09059023 0.11074125 0.12784545 0.009747892
000140 2f 74 2c 3e ca 4d 0f 3e bf 48 22 bc 2f aa cf 3d
       0.16841196 0.13994518 -0.009905039 0.10139882
000150 d9 e8 25 3e 1b 03 8b bd f5 f9 ea 3d 2e ca e4 bb
       0.16202106 -0.06787702 0.11473457 -0.0069821095
000160 49 10 49 bc 64 d6 af bd 3a dc 89 3d dc 6b 26 bc
       -0.012271949 -0.08585814 0.06731458 -0.010157552
000170 d1 d1 62 3d 4d ae b4 3d 18 90 bc bd 6e 7f e7 3d
       0.055375878 0.08822308 -0.09207171 0.11303602
000180 da d7 40 bd 5b 07 6c bd 87 8d e7 bd 67 d4 27 3e
       -0.047080852 -0.057624202 -0.11306291 0.16389619
000190 31 75 07 be 1d 20 ca bd d5 78 77 3d aa 8a 1a 3e
       -0.13228299 -0.09869406 0.06041797 0.15091959
0001a0 37 45 25 3e 24 58 bf bc 47 c2 8f 3d 66 17 08 3e
       0.16139685 -0.023357458 0.07019477 0.13290176
0001b0 bf 66 2a bc 29 fb 1a be c5 ae 20 be 1b 35 0f be
       -0.010400473 -0.15134872 -0.1569167 -0.13985102
0001c0 37 b7 cf bd 37 6e d9 bd 8f 3e 18 3e 0b 63 dc bd
       -0.10142367 -0.10616725 0.14867614 -0.107610784
0001d0 be ae 2b 3d f4 e8 19 3e 27 38 2c be 95 24 17 be
       0.041914694 0.15030271 -0.16818295 -0.14760049
0001e0 8e 43 29 3d 75 d6 09 be c3 8a 1e 3d fb e7 67 bc
       0.04132419 -0.13460715 0.038706552 -0.01415443
0001f0 2e 8f fa bd 40 72 f3 3d bb b8 a1 bd a8 eb 04 bd
       -0.122343406 0.11887026 -0.07896563 -0.0324513
000200 40 a3 24 be 71 1a ae 3b 25 81 e8 3d 2f 00 22 3e
       -0.160779 0.0053132107 0.11352757 0.15820383
000210 08 47 e0 3d 69 da de bd 74 bf 4d 3d c3 dc 03 3e
       0.10951048 -0.10881502 0.050231412 0.12877183
000220 11 4a 03 be fe d1 de bc 24 32 57 bd 17 4d 8c 3c
       -0.12821223 -0.027199741 -0.052538052 0.017126603
000230 7b c0 e0 3d 8f 81 0a 3e 8f 7e 41 3d de ea 96 bd
       0.10974213 0.13525985 0.047239836 -0.07369016
000240 65 09 d4 ba eb e6 8a 3c 89 0b 07 be 21 d9 d8 bd
       -0.0016177116 0.016955813 -0.13187994 -0.10588289
000250 a2 a8 a1 bd a6 a3 d8 bd 16 9a fc 3d ef 62 00 3e
       -0.07893492 -0.105780885 0.12334077 0.1253774
000260 e3 02 16 be d3 97 e9 3c 54 78 dc 3d 13 31 bf bb
       -0.14649539 0.028514778 0.10765138 -0.0058347075
000270 de ed 2c 3e 9d 68 65 3d 63 59 06 3e dd a4 2e 3e
       0.16887614 0.05600797 0.13120036 0.17055078
000280 a4 9b 90 bd 9d 7f 3a be 73 03 08 3e 55 0a 26 3d
       -0.07060936 -0.18212743 0.13282566 0.040537197
000290 3b 9e bd 3d a3 99 22 bd cf e4 08 3d ce 90 63 bd
       0.09258696 -0.0396973 0.033421334 -0.05555802
0002a0 84 a8 78 3d 23 b7 18 3c 35 84 57 bd ef 86 8d 3d
       0.060707584 0.009321007 -0.052616317 0.06910502
0002b0 31 9d f3 3c 67 51 2c be bf 7c f8 bd a0 c6 e2 3d
       0.02973804 -0.16827928 -0.121331684 0.11073041
0002c0 17 ef ff bc cf b9 1a 3e 4d 87 03 be 93 3f 25 3e
       -0.031241937 0.15109943 -0.12844582 0.16137533
0002d0 fa 19 ee bd 51 6e ad 3c a4 74 94 3d f6 bb 7f bd
       -0.116260484 0.021170767 0.0724881 -0.062435113
0002e0 10 04 8f 3d c4 a7 85 bd f5 75 7b 3c ce a7 92 bb
       0.06983197 -0.065261394 0.015347947 -0.0044755703
0002f0 ae 44 4c bc c0 be 2e be 36 e6 a6 3d c2 c3 01 3e
       -0.012467546 -0.17064953 0.08149378 0.12672332
000300 17 7d ee bd f6 c2 9a bb d1 b5 e0 3d 2d b6 b8 bd
       -0.11644953 -0.004722948 0.10972179 -0.09019122
000310 73 c7 d5 3d 0a 6d db 3d c8 b1 56 bc 3b 6e d7 bd
       0.104384325 0.10714157 -0.01310391 -0.10519072
000320 5c 90 e6 3c 41 e5 53 3d ed 73 8a bd e6 23 1b 3e
       0.028145008 0.051732305 -0.06760392 0.15150413
000330 98 bd b7 3d 03 3f c0 bc 95 2c af bc d0 0a af bd
       0.08971709 -0.023467546 -0.021383563 -0.08546984
000340 6f ed b2 3d 0e a1 35 be 74 2c e8 bb 6d 8c 32 3e
       0.08736693 -0.17737219 -0.0070853774 0.1743638
000350 02 2d d8 3d 89 1f 13 3e 31 d0 0d 3e f3 ca 9b bd
       0.105554596 0.14367498 0.1384895 -0.07607069
000360 64 6f ba bd b5 9a b3 bd 47 0e 83 bb 62 47 04 be
       -0.09103277 -0.087697424 -0.0039995047 -0.12917855
000370 f9 24 f2 3d 49 46 2e bd ca f9 ff bd 00 0e c6 bb
       0.11823458 -0.042547498 -0.12498815 -0.0060441494
000380 4a 32 1c be 9b ee d0 bd 42 d5 2c bd 21 15 6f bd
       -0.15253559 -0.102017604 -0.042195566 -0.05836976
000390 ba b6 93 bd 03 a6 79 3d 58 89 20 be 76 f0 db bd
       -0.07212587 0.060949337 -0.15677392 -0.10739224
0003a0 20 0c af bd ef ae 17 3e 96 82 04 bd 47 5f 0b be
       -0.085472345 0.14812826 -0.0323511 -0.13610564
0003b0 76 61 28 3e e0 3a 33 3d d2 b0 32 be a3 a9 2d 3d
       0.16443428 0.04375732 -0.17450264 0.042398106
0003c0 8a 7d fd bd 64 d4 19 3e 78 4f 00 be 59 26 97 3d
       -0.1237746 0.15022427 -0.12530315 0.07380361
0003d0 ed 04 13 3e 2a b6 e1 bd c0 a6 71 bd 7a fd 50 bd
       0.14357348 -0.11021073 -0.058996916 -0.051022984
0003e0 d7 ff 75 bd 35 3f 17 be f1 8d 19 be e3 ca fb bd
       -0.06005844 -0.14770205 -0.14995553 -0.12294557
0003f0 c8 8d 2a 3e 90 2d 19 3d 65 b4 3e bd 23 18 d6 bd
       0.16655648 0.037396967 -0.046558756 -0.104538225

encoder.egnn2.edge_mlp.2.bias f4 [32]
000000 98 e7 17 3c 18 6d 5c 3d 6f 11 09 be 87 12 d5 bd
       0.009271525 0.053814977 -0.13385557 -0.104039244
000010 87 6c 70 3d a4 f2 01 be 10 07 25 be 8e 97 f6 bd
       0.05869725 -0.12690216 -0.16115975 -0.120406255
000020 67 28 ec bd f0 02 c4 3c f4 80 44 bd 99 d7 43 bd
       -0.11531144 0.023927182 -0.04797454 -0.04781303
000030 79 a4 15 3e aa 13 24 be 96 76 ad bd f1 1d 0d 3e
       0.14613523 -0.16023126 -0.08469884 0.13780953
000040 44 2e 02 3e 5a 62 1e be ba 5c e1 bd 13 d4 8c bd
       0.12712961 -0.15467206 -0.11004014 -0.068763874
000050 cd 8a 3d be e1 39 a4 3d e4 42 8a 3d 55 48 2c 3e
       -0.1850998 0.08018852 0.067510396 0.16824467
000060 3b c0 90 bd 81 64 b4 bd 85 52 ea 3d b1 f1 df bd
       -0.07067915 -0.08808232 0.114415206 -0.10934771
000070 db 9a 67 bc e6 5c 1a 3e 72 a8 22 3d fe cb 24 3d
       -0.0141360415 0.150745 0.039711423 0.040233605
