latent/best_model.pt (torch, 98485 bytes, 30 tensors)

encoder.gat1.att f4 [1, 4, 32]
0.01704865 -0.09991144 0.29203805 -0.21054828 -0.40903077 -0.43596756 0.35403496 0.1056695
-0.0027355885 -0.36605415 -0.21801308 0.18050496 -0.13750008 0.32566145 -0.3036985 -0.10960912
0.13873968 -0.044371683 0.1732397 -0.1319975 -0.36342528 0.056818683 -0.26998422 0.091408625
0.24692321 -0.35407165 -0.31196398 0.251741 0.2829054 0.026555246 -0.36564678 0.11573689
0.2230449 -0.3137214 -0.30360442 0.38963145 0.23194109 0.16569427 -0.36479923 -0.13148546
0.29225644 -0.18606506 0.25271875 -0.34175903 -0.20487453 0.18783693 -0.1602065 -0.3485787
0.10215655 -0.3075884 0.17413509 0.4147901 -0.14898467 0.2590885 -0.3442466 0.024659289
0.20600443 -0.41159067 0.24632362 0.27816477 -0.01228058 -0.107334204 0.1555716 0.19250907
-0.02809875 -0.29926065 0.39391977 0.2592427 -0.29693714 -0.36964554 -0.14379467 0.31920764
0.18746531 0.13467088 0.18252632 -0.26445523 -0.28579265 -0.001034404 0.3039706 -0.24507001
0.3452771 0.17495865 -0.09710327 -0.43557724 -0.29845113 0.32529458 0.2285159 0.39091954
-0.42413267 -0.022741288 -0.35381547 0.45009914 -0.06671724 0.18429533 -0.04686202 -0.44934395
0.27969885 0.38239115 -0.37301448 0.08241509 0.13105571 0.023269357 -0.1955315 0.028305275
0.072944924 0.36143488 0.3250781 0.14562279 -0.13906452 0.059960555 -0.19427262 0.11220449
0.2018025 0.021281898 0.24493794 -0.35698467 0.2918791 -0.14569508 0.18131745 -0.20184891
-0.1367716 0.33692747 0.012469191 -0.25539702 -0.019407576 -0.33245495 -0.3374081 -0.30473682
00000000: 9ca9 8b3c 5e9e ccbd 0386 953e f899 57be
00000010: 7b6c d1be 2437 dfbe 1244 b53e 4069 d83d
00000020: 8f47 33bb 736b bbbe d23e 5fbe 4bd6 383e
00000030: d2cc 0cbe 19bd a63e 5f7e 9bbe bf7a e0bd
00000040: c611 0e3e 15bf 35bd bf65 313e 5a2a 07be
00000050: e112 babe b5ba 683d 5f3b 8abe 7234 bb3d
00000060: 70d9 7c3e e148 b5be beb9 9fbe 32e4 803e
00000070: fad8 903e 638a d93c 0e36 bbbe 7607 ed3d
00000080: e265 643e 17a0 a0be 0a72 9bbe c67d c73e
00000090: f781 6d3e c2ab 293e f7c6 babe 20a4 06be
000000a0: a3a2 953e d787 3ebe 5a64 813e 0afb aebe
000000b0: a1ca 51be 5358 403e 2c0d 24be e878 b2be
000000c0: 7437 d13d 3a7c 9dbe 7850 323e 5e5f d43e
000000d0: 708f 18be 3fa7 843e 1741 b0be 4702 ca3c
000000e0: d3f2 523e 03bc d2be 423c 7c3e 9d6b 8e3e
000000f0: 7c34 49bc 09d2 dbbd 294e 1f3e 1921 453e
00000100: 5a2f e6bc b138 99be daaf c93e 76bb 843e
00000110: 2508 98be 2e42 bdbe e93e 13be 2f6f a33e
00000120: e8f6 3f3e 2ae7 093e 2ee8 3a3e ad66 87be
00000130: 6a53 92be d794 87ba 09a2 9b3e a2f3 7abe
00000140: 29c8 b03e 5c28 333e 14de c6bd fb03 dfbe
00000150: 96ce 98be 038d a63e 1200 6a3e 9b26 c83e
00000160: eb27 d9be f04b babc 4d27 b5be 6573 e63e
00000170: 0ca3 88bd eab7 3c3e 64f2 3fbd 6910 e6be
00000180: b034 8f3e c6c8 c33e c1fb bebe 3ec9 a83d
00000190: 7833 063e 619f be3c 6939 48be 77e0 e73c
000001a0: 2664 953d fe0d b93e a370 a63e 241e 153e
000001b0: ee66 0ebe 3399 753d 67ef 46be 78cb e53d
000001c0: 51a5 4e3e 6057 ae3c 03d1 7a3e b2c6 b6be
000001d0: 2d71 953e 1731 15be 48ab 393e 7bb1 4ebe
000001e0: db0d 0cbe c281 ac3e 944b 4c3c 66c3 82be
000001f0: a3fc 9ebc 8937 aabe c1c0 acbe 7706 9cbe

encoder.gat1.bias f4 [128]
-0.008315318 -0.001525222 -0.021135882 0.0100252265 -0.0010534885 -0.018134529 -0.0026096273 0.0089339595
-0.0041684164 0.019631283 0.017005967 -0.005181028 0.0066845985 -0.019927794 0.0069221533 0.008005064
0.0131857805 -0.0015586987 -0.0022772965 -0.008707598 0.0068574077 -0.011179076 -0.0052232253 0.013139086
-0.00092603115 -0.0076760775 -0.009057947 -0.0044177813 0.011646682 0.007099841 0.0021920835 0.0010398979
0.006324022 -0.0087512545 -0.006460687 0.004059341 0.00069962005 0.0058544655 0.0015812505 -0.00063490635
0.0033018603 -0.0032193998 -0.007878601 0.0028353068 -0.0063274326 0.009600692 0.0013950954 0.002984023
0.013995224 0.013821127 -0.0062794774 -0.00039507204 0.0025733975 0.009146814 -0.01211282 0.00014910458
0.00027626313 0.00717218 -0.012224717 -0.01790641 0.009582263 -0.010403432 0.01173841 0.008388536
-0.0009992773 -0.018584045 0.0044522407 0.012353496 0.00921778 0.0139479125 -0.01022512 0.0006880398
-0.0043333666 -0.0060939626 0.0021579002 0.0004516791 -0.016242819 0.0056768116 0.0019126444 8.330244e-07
0.02516144 0.0015944649 0.00096595613 0.007649761 0.0117252525 -0.016081307 0.013885733 0.0039626085
-0.002338463 -0.022456719 0.0077806064 0.013645541 0.009271273 0.011534541 -0.014974265 0.0058974884
0.005861221 0.0052934135 -0.0026156507 0.015597993 0.0018954307 -0.008946871 -0.0065073376 0.0053630304
-0.0013626999 6.082151e-05 0.0050112144 0.0058479304 -0.00061546406 0.005000283 -0.0035605996 0.007626714
-0.014720309 -0.007950929 -0.0029083726 -0.008745272 -0.0108107785 0.00656203 -0.008561676 0.0131206
-0.009175365 -0.0033768273 0.0042930692 0.0022908952 6.5691383e-06 -0.0039048777 0.00021752951 -0.006092679
00000000: f93c 08bc f5e9 c7ba 2825 adbc d940 243c
00000010: 3515 8aba dd8e 94bc 4806 2bbb be5f 123c
00000020: 3697 88bb c9d1 a03c 1950 8b3c 9dc5 a9bb
00000030: 7a0a db3b 9d3f a3bc 3bd3 e23b ac27 033c
00000040: 2c09 583c 404d ccba b23e 15bb 50aa 0ebc
00000050: 1bb4 e03b 7128 37bc 9727 abbb 5245 573c
00000060: e6c0 72ba 9b87 fbbb c967 14bc 09c3 90bb
00000070: bad1 3e3c c8a5 e83b 0fa9 0f3b 2f4d 883a
00000080: be39 cf3b 6c61 0fbc 2cb4 d3bb 3804 853b
00000090: b566 373a d1d6 bf3b f641 cf3a d86f 26ba
000000a0: 0664 583b 91fc 52bb 3f15 01bc 8ed0 393b
000000b0: 5a56 cfbb 394c 1d3c a2db b63a 998f 433b
000000c0: 394c 653c 0272 623c 13c4 cdbb ac21 cfb9
000000d0: 72a6 283b 85dc 153c d974 46bc f558 1c39
000000e0: 69d7 9039 9b04 eb3b 2e4a 48bc 77b0 92bc
000000f0: edfe 1c3c 2873 2abc 7652 403c 1270 093c
00000100: 2ffa 82ba 913d 98bc 1ae4 913b 5166 4a3c
00000110: 2c06 173c c985 643c 4387 27bc 925d 343a
00000120: eafe 8dbb ddaf c7bb 8f6b 0d3b 58cf ec39
00000130: a90f 85bc 8c04 ba3b b2b1 fa3a 009d 5f35
00000140: 5d1f ce3c 5dfd d03a 3838 7d3a d9aa fa3b
00000150: 461b 403c f2bc 83bc fc80 633c c5d8 813b
00000160: e640 19bb 27f7 b7bc 75f4 fe3b 8c91 5f3c
00000170: 8ae6 173c 5ffb 3c3c 9f56 75bc b83f c13b
00000180: 7c0f c03b 5f74 ad3b 566b 2bbb b98e 7f3c
00000190: 1a70 f83a e695 12bc 813b d5bb 5cbc af3b
000001a0: 9f9c b2ba 991a 7f38 1d35 a43b ff9f bf3b
000001b0: 1857 21ba 6ad9 a33b f358 69bb 84e9 f93b
000001c0: 732d 71bc 9d44 02bc 659a 3ebb 5448 0fbc
000001d0: b11f 31bc 4c06 d73b 4646 0cbc c9f7 563c
000001e0: 4554 16bc c34d 5dbb e0ac 8c3b d822 163b
000001f0: 786c dc36 fae8 7fbb a218 6439 19a5 c7bb

encoder.gat1.lin_l.weight f4 [128, 2]
0.017523423 0.05574331 -0.0760801 -0.066236764 0.062041823 -0.09055227 0.15325038 -0.15703723
-0.20761532 0.12380475 0.20647834 0.13581559 -0.1944005 0.14694455 0.14193779 -0.11271789
0.08528526 -0.118256375 0.062046874 0.13275994 0.06456197 0.17153296 -0.16771667 0.1821682
0.20516388 0.088751994 -0.149592 -0.10290997 0.019180398 0.1660449 0.12027187 -0.024316993
0.069059156 0.034057334 -0.11878091 -0.11791685 -0.15850313 -0.0015745999 0.08067693 0.16471772
0.1272369 -0.099461645 0.089583814 0.13541679 -0.086607054 0.0957344 0.09272543 0.027916444
0.10728668 -0.23941757 0.0053551164 0.08723749 -0.19735672 0.060154058 -0.13995485 0.11550102
-0.18534295 -0.05795489 0.17670375 -0.058580536 -0.055736773 -0.0730586 -0.1306114 0.14205466
-0.1196577 -0.052429143 -0.17752093 0.11333595 -0.13790886 -0.12969649 0.033997513 -0.24346194
0.1911707 -0.22435522 -0.06397857 0.050259937 0.15399395 -0.1326694 -0.03344594 0.058366664
0.012051212 -0.1764343 0.023856012 -0.077037826 -0.11723529 -0.022763738 0.051538743 -0.076588176
-0.10191067 0.12140828 -0.02849923 0.15038444 -0.099169396 0.0076400554 0.098828 0.021026215
0.17272162 0.029848736 0.07500689 -0.14394565 -0.12850994 0.020906122 -0.11929727 -0.14538664
0.17448261 0.13441932 0.09478478 0.08090318 -0.14521107 0.012092143 0.17831647 0.0447076
-0.16267103 -0.13105169 0.00016366587 0.07495728 0.1596999 -0.15783381 0.21017945 0.19507594
-0.13469777 0.10820273 0.032687217 -0.15668552 0.029544236 0.013237481 0.19385116 -0.017405543
0.076084726 -0.14137107 -0.18740465 -0.19149064 0.24623664 -0.21518297 -0.014057395 0.1517812
-0.15508585 0.12915613 0.12672079 0.051788528 -0.009306535 0.048978504 0.0364544 0.052535616
0.14195213 -0.1843366 -0.091963835 0.13770533 -0.0051742955 0.041774813 0.13360003 -0.093298204
-0.103192806 -0.088111445 0.006418029 -0.17670715 -0.1621794 -0.17806046 -0.04060818 -0.05609245
-0.12376118 -0.08365932 -0.19115113 -0.10997499 -0.08533581 0.03305424 -0.1750322 0.19997518
-0.10188524 0.11365822 -0.010333277 0.16462457 0.09838948 0.113904774 -0.20723039 -0.11863615
-0.045841444 0.09587072 0.17179286 -0.12893473 0.013997881 0.1383625 -0.05688377 -0.047586758
-0.070595 0.09461226 0.051771678 0.08329026 0.08621671 -0.13597448 0.19291246 0.11211167
0.044774346 -0.11591097 0.21201289 -0.13942248 -0.21269858 0.0048471587 -0.1708041 -0.14904188
-0.14561462 0.10927615 -0.063781574 0.13607268 -0.02137229 -0.1463157 0.04653653 0.14175302
0.21543245 -0.009343103 -0.1794061 0.20889668 -0.11186112 -0.117043816 0.20818606 0.19885695
-0.07602147 0.043747924 0.21108416 -0.15186547 -0.16225678 0.09198322 -0.16478735 0.17084572
-0.13607979 0.048293084 -0.18675296 -0.12207565 0.16419624 -0.20020749 -0.10859165 0.2199279
-0.15830229 0.09571476 -0.053192496 -0.112860754 0.23081219 -0.078109264 0.2089209 0.057007197
-0.08147282 -0.11357017 0.08973511 -0.17496176 -0.11201527 -0.17581248 0.01079747 0.09341856
0.11407439 0.13415784 -0.16099572 0.08262093 0.1610566 -0.15397634 0.0056675198 0.05830639
00000000: 488d 8f3c 1953 643d e2cf 9bbd 24a7 87bd
00000010: 911f 7e3d 7873 b9bd abed 1c3e 5ece 20be
00000020: 1c99 54be 588d fd3d 0f6f 533e 3e13 0b3e
00000030: ed10 47be a278 163e 2458 113e a3d8 e6bd
00000040: 0aaa ae3d 6630 f2bd dd24 7e3d 39f2 073e
00000050: 1139 843d 56a6 2f3e ebbd 2bbe 4d8a 3a3e
00000060: 7b16 523e 9bc3 b53d a52e 19be 76c2 d2bd
00000070: 3620 9d3c ad07 2a3e 1951 f63d 6e34 c7bc
00000080: e36e 8d3d b47f 0b3d 6843 f3bd 647e f1bd
00000090: a54e 22be ce62 ceba f239 a53d c3ab 283e
000000a0: 644a 023e 8cb2 cbbd b877 b73d b3aa 0a3e
000000b0: 0a5f b1bd 6610 c43d d5e6 bd3d 07b1 e43c
000000c0: 1eb9 db3d e129 75be f979 af3b 92a9 b23d
000000d0: e117 4abe 1a64 763d 5350 0fbe cc8b ec3d
000000e0: 8bca 3dbe 1b62 6dbd d4f1 343e 25f2 6fbd
000000f0: 3e4c 64bd bf9f 95bd ffbe 05be c776 113e
00000100: 190f f5bd f1bf 56bd 0cc8 35be ae1c e83d
00000110: fb37 0dbe 28cf 04be fa40 0b3d 164e 79be
00000120: 41c2 433e 60bd 65be 3207 83bd 5ddd 4d3d
00000130: 97b0 1d3e 7dda 07be 9cfe 08bd e211 6f3d
00000140: 7272 453c 31ab 34be af6d c33c 02c6 9dbd
00000150: 0e19 f0bd 057b babc 4a1a 533d 43da 9cbd
00000160: 8bb6 d0bd e8a4 f83d 3877 e9bc 61fe 193e
00000170: 5319 cbbd 6e59 fa3b 5666 ca3d 2b3f ac3c
00000180: f0dd 303e 5685 f43c 369d 993d 7d66 13be
00000190: 1c98 03be 5143 ab3c 2152 f4bd 3ce0 14be
000001a0: 92ab 323e 38a5 093e 861e c23d 91b0 a53d
000001b0: 36b2 14be 201e 463c 9898 363e 511f 373d
000001c0: 3c93 26be 6a32 06be b99d 2b39 3483 993d
000001d0: 5f88 233e 309f 21be 4839 573e fdc1 473e
000001e0: 36ee 09be 6599 dd3d 08e3 053d 2b72 20be
000001f0: c106 f23c 05e2 583c eb80 463e 1296 8ebc
00000200: 4fd2 9b3d 94c3 10be 01e7 3fbe 1f16 44be
00000210: 7525 7c3e ed58 5cbe fd50 66bc 886c 1b3e
00000220: d3ce 1ebe 8141 043e 18c3 013e 3520 543d
00000230: 707a 18bc af9d 483d 3551 153d 962f 573d
00000240: e65b 113e bcc2 3cbe 8957 bcbd a002 0d3e
00000250: 238d a9bb 111c 2b3d 72ce 083e 2113 bfbd
00000260: c056 d3bd c673 b4bd 544e d23b b8f2 34be
00000270: 5b12 26be 7b55 36be c354 26bd 32c1 65bd
00000280: 8076 fdbd 9455 abbd 1fbd 43be 913a e1bd
00000290: 8bc4 aebd e263 073d a43b 33be 4bc6 4c3e
000002a0: 35a9 d0bd a4c5 e83d e84c 29bc 5893 283e
000002b0: 6c80 c93d e846 e93d 3434 54be 83f7 f2bd
000002c0: 3dc4 3bbd de57 c43d 78ea 2f3e 7707 04be
000002d0: 5e57 653c e6ae 0d3e f5fe 68bd 55ea 42bd
000002e0: 1d94 90bd 13c4 c13d 8a0e 543d 1594 aa3d
000002f0: 6392 b03d e53c 0bbe d88a 453e ce9a e53d
00000300: 4e65 373d bb62 edbd e819 593e c4c4 0ebe
00000310: a8cd 59be ead4 9e3b 45e7 2ebe 6f9e 18be
00000320: 001c 15be 2dcc df3d ea9f 82bd a356 0b3e
00000330: f114 afbc c8d3 15be 179d 3e3d b427 113e
00000340: 539a 5c3e d013 19bc 3cb6 37be 03e9 553e
00000350: 7117 e5bd abb4 efbd ba2e 553e 28a1 4b3e
00000360: 25b1 9bbd 0631 333d 7226 583e 9f82 1bbe
00000370: a426 26be b361 bc3d 04be 28be 2ef2 2e3e
00000380: 8058 0bbe f8ce 453d 2b3c 3fbe cc02 fabd
00000390: 0f23 283e 3103 4dbe 4d65 debd c834 613e
000003a0: ff19 22be 1a06 c43d 60e0 59bd 8a23 e7bd
000003b0: 085a 6c3e c0f7 9fbd 5cef 553e 6180 693d
000003c0: 39db a6bd 7a97 e8bd 0bc7 b73d 2d29 33be
000003d0: 4368 e5bd 3008 34be dfe7 303c 3b52 bf3d
000003e0: d59f e93d ac60 093e 10dc 24be 2a35 a93d
000003f0: 05ec 243e f9ab 1dbe 9ab6 b93b aed2 6e3d

encoder.gat1.lin_l.bias f4 [128]
-0.39831144 0.46182424 -0.2925493 -0.64466953 -0.63373077 0.35742825 0.018097961 0.029735304
0.13037647 -0.13681385 0.095662005 0.31590995 0.66668606 -0.17774951 -0.22250472 0.05263956
0.19029427 -0.53420484 0.6005251 0.1937402 0.018102236 0.5903497 0.021285849 -0.38212776
0.32432008 -0.68604374 0.34855884 -0.5664734 0.24780117 -0.19757608 0.509383 -0.039260462
0.5804838 0.36841318 0.26533017 -0.04471296 0.6989399 0.07483775 -0.42820695 -0.5382581
-0.19411635 0.4432435 -0.4084389 -0.65027124 -0.512449 -0.550489 -0.43181536 -0.19589338
-0.30359906 0.5951289 0.541798 0.22702636 -0.047043 -0.45482063 -0.24132112 0.26443285
-0.21932673 -0.60232574 0.17785928 0.05288253 -0.3147555 0.6513565 0.09740235 -0.28386557
0.49558115 0.048711356 -0.4759904 -0.23362091 0.6665606 -0.63843584 -0.24211515 0.30098948
0.65895474 -0.32083994 0.20850697 0.2947673 -0.084540635 0.604481 0.35670373 -0.217002
-0.45970705 0.124206424 0.65876573 -0.48450598 -0.26665697 -0.15765196 0.056753572 0.3676919
0.71283484 -0.12329416 0.1462494 0.65862006 0.43434054 0.66976315 0.028468197 0.19928934
-0.19214366 0.21330477 0.43534273 0.5436274 0.21347965 0.43328172 -0.22946395 0.4461747
0.16284427 0.47384328 0.48772615 -0.53852594 -0.64020365 -0.25864395 0.37523934 0.101160765
-0.058008514 -0.5383846 -0.29450786 0.663985 -0.0022350154 0.25301468 0.2869719 0.6668662
-0.0835077 -0.19152935 -0.2983325 0.23125646 0.5961443 0.4920504 -0.5842121 -0.65918255
00000000: 7aef cbbe 3a74 ec3e 06c9 95be 1009 25bf
00000010: 2e3c 22bf d600 b73e 2d42 943c 7497 f33c
00000020: 6981 053e ee18 0cbe 71ea c33d f3be a13e
00000030: f0ab 2a3f f803 36be 47d8 63be 949c 573d
00000040: 80dc 423e a6c1 08bf 03bc 193f d563 463e
00000050: 244b 943c 2821 173f a95f ae3c 40a6 c3be
00000060: 480d a63e 90a0 2fbf 4e76 b23e 6704 11bf
00000070: 97bf 7d3e 6251 4abe ed66 023f 94cf 20bd
00000080: 969a 143f a7a0 bc3e 5bd9 873e f024 37bd
00000090: baed 323f 8944 993d f13d dbbe 48cb 09bf
000000a0: 70c6 46be d0f0 e23e e71e d1be 2d78 26bf
000000b0: dc2f 03bf d9ec 0cbf e716 ddbe 4698 48be
000000c0: 5671 9bbe 5e5a 183f 46b3 0a3f 9979 683e
000000d0: 29b0 40bd 40de e8be e21c 77be be63 873e
000000e0: 3097 60be 0532 1abf be20 363e 5a9b 583d
000000f0: a227 a1be 4dbf 263f e27a c73d d456 91be
00000100: d0bc fd3e 8f85 473d 04b5 f3be 523a 6fbe
00000110: b7a3 2a3f 8870 23bf 09ed 77be 4b1b 9a3e
00000120: 42b1 283f 2245 a4be da82 553e bdeb 963e
00000130: a423 adbd 44bf 1a3f dfa1 b63e c635 5ebe
00000140: b95e ebbe f05f fe3d dfa4 283f 2b11 f8be
00000150: 4387 88be 846f 21be 6f76 683d 1d42 bc3e
00000160: 587c 363f a681 fcbd 67c2 153e 539b 283f
00000170: e261 de3e 9975 2b3f 2336 e93c 8112 4c3e
00000180: 4fc1 44be 916c 5a3e 3ee5 de3e 2a2b 0b3f
00000190: 699a 5a3e 1ad7 dd3e 99f8 6abe 0371 e43e
000001a0: a6c0 263e 969b f23e 3eb7 f93e d6dc 09bf
000001b0: 63e4 23bf fb6c 84be 5f1f c03e 602d cf3d
000001c0: 569a 6dbd 93d3 09bf bcc9 96be ecfa 293f
000001d0: 5679 12bb 248b 813e fbed 923e beb7 2a3f
000001e0: 1606 abbd 4520 44be 0abf 98be 7ece 6c3e
000001f0: ea9c 183f 08ee fb3e ed8e 15bf 30c0 28bf

encoder.gat1.lin_r.weight f4 [128, 2]
0.094629705 0.17938848 -0.18979514 0.13197505 0.1122731 0.061950445 -0.072762296 -0.17360221
-0.18551262 0.15060583 0.08132361 -0.054372504 -0.12485911 -0.07140786 -0.13030311 -0.02252488
0.010090199 0.043262616 0.04413081 0.18495424 -0.17794524 0.044879965 0.17108595 0.018867146
0.057269856 -0.14275107 0.17992374 0.06871659 0.0056804772 -0.051355995 0.08753084 -0.057984237
0.2140635 0.109309934 -0.03835988 0.18134259 -0.16665842 -0.119222574 -0.0094308 -0.05685101
0.08431637 0.19357403 0.011442377 0.11889881 0.038336374 -0.23044981 0.018584693 0.08551559
0.080489434 0.19258179 -0.008229881 0.10704661 -0.014071467 0.1871045 -0.21758786 0.09650918
-0.06262161 -0.036955643 -0.14650102 -0.0001243896 0.20259272 -0.16941126 0.155483 0.07010225
-0.07282297 0.009963215 0.042178646 0.1661976 0.12676427 -0.09315064 0.08122335 0.072862335
0.19659872 -0.0728581 0.13043615 -0.17895536 0.17108582 0.046476517 0.14714697 -0.059049197
0.038854513 0.027149709 0.12534551 0.18718596 0.21404108 -0.09106583 -0.18474574 0.021083685
0.15275565 -0.12572892 -0.040674724 0.15073384 0.13469407 0.093557835 0.2258519 -0.21901077
0.005764483 0.15588309 0.20723128 -0.0012912339 0.07569616 0.19882753 -0.051939458 -0.24358292
-0.027520465 -0.12490797 0.18039568 0.1780168 0.22915839 0.05710427 -0.035847444 0.052017722
-0.122079425 0.15007077 0.035182633 -0.038312733 0.07544093 -0.047053747 -0.1059221 0.12468183
-0.13739397 -0.01335874 -0.097752035 -0.052159306 -0.041805618 -0.07035387 0.19279239 -0.005152153
-0.05632687 -0.06909446 0.0651021 0.13121189 0.19789371 0.17073889 -0.19553407 -0.0025849037
0.07764422 -0.12629808 -0.1388762 -0.12396272 -0.13999534 0.12277424 0.18372278 -0.038966116
-0.19285324 0.20060441 0.15487525 -0.005368183 -0.2318645 -0.12981556 0.057460237 -0.08182615
-0.14659536 -0.010333473 -0.07712488 -0.10441542 0.105300784 -0.12990285 0.15963872 -0.16865028
-0.07922715 0.036057845 0.16993079 -0.19405201 0.025805343 0.166532 -0.0980316 0.17532584
0.17680621 -0.03217238 0.10310098 0.12998168 0.14984156 0.097266525 -0.034037918 0.17068386
-0.07714096 -0.19317067 0.19114956 -0.11711764 -0.058554806 0.0852482 -0.037197474 0.053211715
-0.04261838 -0.057575896 0.12143918 -0.029075047 -0.10709814 0.22920687 -0.090360805 -0.21857567
-0.063313395 0.09590883 0.070594646 0.15548043 -0.16223262 -0.09623176 0.18800971 -0.14007846
0.1679654 -0.14164706 0.13956682 0.060315657 0.13878304 0.021500435 0.059282273 -0.01844567
-0.04640871 -0.1804039 -0.19993344 -0.15541431 -0.004092933 0.16594878 0.03631936 0.018484032
-0.039724328 -0.13085304 0.036710292 0.083408795 -0.19430675 -0.00980722 0.004945046 -0.19947496
-0.20271562 0.1269227 -0.021397518 -0.07012619 -0.10885824 0.10180429 0.119381 0.04275925
-0.06950407 0.10109524 0.19328745 -0.04282262 0.112456694 0.11803876 0.10998005 -0.12717989
0.17836545 -0.112785675 0.22721452 -0.15760858 -0.20989594 -0.10105783 -0.0039862087 -0.06338224
0.21572094 0.07646797 0.09451478 0.19326821 0.040586937 0.04904785 -0.018672056 -0.026269823
00000000: 38cd c13d 9db1 373e a859 42be 7824 073e
00000010: 70ef e53d c0bf 7d3d 6604 95bd c7c4 31be
00000020: 05f7 3dbe 6a38 1a3e fe8c a63d b4b5 5ebd
00000030: 22b6 ffbd 493e 92bd 2e6e 05be 1986 b8bc
00000040: 5d51 253c 2434 313d 82c2 343d a564 3d3e
00000050: 4737 36be 0ed4 373d 2831 2f3e 468f 9a3c
00000060: cc93 6a3d 562d 12be ee3d 383e 49bb 8c3d
00000070: 4c23 ba3b aa5a 52bd 5e43 b33d e180 6dbd
00000080: 7633 5b3e e3dd df3d 401f 1dbd dfb1 393e
00000090: 81a8 2abe f72a f4bd a483 1abc 9bdc 68bd
000000a0: 10ae ac3d 4538 463e cf78 3b3c 3881 f33d
000000b0: 9a06 1d3d 09fb 6bbe ed3e 983c cc22 af3d
000000c0: a5d7 a43d 2934 453e 9fd6 06bc 413b db3d
000000d0: 038c 66bc 5298 3f3e 5acf 5ebe 9ba6 c53d
000000e0: c23f 80bd cd5e 17bd 5d04 16be 946e 02b9
000000f0: 7774 4f3e 257a 2dbe f036 1f3e c591 8f3d
00000100: 3624 95bd c13c 233c 84c3 2c3d b42f 2a3e
00000110: 7ece 013e c3c5 bebd 6d58 a63d d938 953d
00000120: 2d51 493e a136 95bd 0e91 053e 1340 37be
00000130: 1f31 2f3e 295e 3e3d b2ad 163e 92dd 71bd
00000140: e925 1f3d 1169 de3c 935a 003e adad 3f3e
00000150: 962d 5b3e b980 babd fd2d 3dbe b1b7 ac3c
00000160: fa6b 1c3e 15bf 00be 8a9a 26bd f959 1a3e
00000170: 3eed 093e 409b bf3d b845 673e 5c44 60be
00000180: fde3 bc3b d19f 1f3e 7034 543e 9f3e a9ba
00000190: 9706 9b3d 7299 4b3e 78be 54bd cd6d 79be
000001a0: 9972 e1bc c0cf ffbd a5b9 383e 094a 363e
000001b0: 7fa8 6a3e 2be6 693d c5d4 12bd 8910 553d
000001c0: c704 fabd 27ac 193e aa1b 103d d0ed 1cbd
000001d0: c680 9a3d 6ebb 40bd b0ed d8bd 3059 ff3d
000001e0: 01b1 0cbe 9ede 5abc 3832 c8bd ffa4 55bd
000001f0: 5e3c 2bbd b115 90bd 5e6b 453e 64d3 a8bb
00000200: 01b7 66bd 6581 8dbd 4054 853d 695c 063e
00000210: a6a4 4a3e 2dd6 2e3e 153a 48be 7d67 29bb
00000220: ef03 9f3d 4954 01be 9035 0ebe 2be0 fdbd
00000230: f05a 0fbe 1071 fb3d d321 3c3e ef9a 1fbd
00000240: 527b 45be 3e6b 4d3e 9e97 1e3e 95e7 afbb
00000250: e36d 6dbe 5fee 04be 6d5b 6b3d 7894 a7bd
00000260: 181d 16be ba4d 29bc a6f3 9dbd c0d7 d5bd
00000270: f0a7 d73d 4105 05be 5578 233e a9b2 2cbe
00000280: d841 a2bd 64b1 133d 5602 2e3e 92b5 46be
00000290: ba65 d33c 5d87 2a3e cbc4 c8bd 9e88 333e
000002a0: b00c 353e 2fc7 03bd 9b26 d33d eb19 053e
000002b0: 1170 193e ac33 c73d 586b 0bbd c0c7 2e3e
000002c0: 14fc 9dbd 88ce 45be b6bc 433e 60db efbd
000002d0: 2ad7 6fbd 9c96 ae3d 615c 18bd 87f4 593d
000002e0: 9c90 2ebd b4d4 6bbd 1bb5 f83d cb2e eebc
000002f0: 4556 dbbd 35b5 6a3e 160f b9bd 4dd2 5fbe
00000300: 74aa 81bd d96b c43d ed93 903d 4336 1f3e
00000310: 4f20 26be 2815 c5bd 9e85 403e ba70 0fbe
00000320: 1fff 2b3e ed0b 11be 9bea 0e3e 8d0d 773d
00000330: 241d 0e3e ae21 b03c f8d1 723d 601b 97bc
00000340: 0f17 3ebd cdbb 38be 5abb 4cbe ee24 1fbe
00000350: 031e 86bb 7aee 293e 9cc3 143d d36b 973c
00000360: fab5 22bd 57fe 05be 885d 163d 3bd2 aa3d
00000370: 59f8 46be 76ae 20bc 0d0a a23b 2a43 4cbe
00000380: af94 4fbe 06f8 013e d949 afbc 529e 8fbd
00000390: 12f1 debd c57e d03d 077e f43d 5324 2f3d
000003a0: 2658 8ebd 050b cf3d 25ed 453e c666 2fbd
000003b0: b24f e63d 4ebe f13d 383d e13d 723b 02be
000003c0: 6fa5 363e 2dfc e6bd ecaa 683e 2564 21be
000003d0: f6ee 56be 68f7 cebd be9e 82bb 8cce 81bd
000003e0: f3e5 5c3e 3d9b 9c3d f790 c13d 1ae8 453e
000003f0: 7d3e 263d 66e6 483d 24f6 98bc d033 d7bc

encoder.gat1.lin_r.bias f4 [128]
-0.6902864 -0.6272201 0.37566057 -0.43973774 -0.58683485 0.40105346 -0.008667479 0.6589079
-0.7189264 0.038226087 -0.5108976 -0.2695552 0.46691224 -0.32191625 0.70576036 -0.06955166
0.16193138 -0.023384366 -0.024393221 -0.12474734 0.5589454 0.43185946 0.3479144 0.48339367
0.18551214 -0.53255075 -0.35514975 -0.35514602 0.43908465 -0.39992967 -0.67894596 0.33691382
0.21772164 0.5610497 -0.68782514 -0.31990877 0.02212284 -0.26954392 -0.38909784 -0.68204856
-0.70588493 0.4435749 0.2801985 0.4183844 -0.28391567 -0.38382554 -0.4200982 0.44374663
0.445753 -0.71574205 0.2938594 -0.17760982 0.32636133 0.09085248 0.25201038 -0.5238837
0.2226883 0.10899061 0.5311913 -0.37052876 0.53223115 0.44331446 -0.37224153 0.32815364
-0.6335445 0.38356668 -0.5634822 -0.47315928 0.3260405 0.43146673 0.27537978 -0.11580082
0.15084653 0.25121146 0.0808851 -0.40191123 -0.5487969 0.41492382 -0.47248268 -0.0047007785
0.115510434 -0.17097044 0.590313 -0.28686583 -0.43019098 -0.63931775 -0.3348647 0.7178276
-0.28062654 0.10794076 -0.71403366 -0.038744163 0.50421447 -0.11945496 -0.5173652 0.039382238
0.251743 -0.22375722 0.002577684 0.26370978 0.08314321 0.5264432 -0.66440874 -0.40498602
0.12283143 0.118975274 0.55608064 -0.3653016 -0.2772779 0.4540578 0.4486951 0.4075304
-0.64446574 -0.73037285 -0.1928121 0.21000789 -0.5312873 -0.6986226 0.34240782 -0.51514906
0.36334574 0.34909314 0.64991915 0.06550085 0.4902459 0.31057054 0.13382182 -0.30648044
00000000: 9cb6 30bf 7f91 20bf 9556 c03e 4e25 e1be
00000010: cf3a 16bf e156 cd3e 0b02 0ebc 30ae 283f
00000020: 900b 38bf f592 1c3d 2fca 02bf 2403 8abe
00000030: 1f0f ef3e 35d2 a4be b6ac 343f 1a71 8ebd
00000040: 57d1 253e 9290 bfbc 4bd4 c7bc 897b ffbd
00000050: 0c17 0f3f af1c dd3e d621 b23e 607f f73e
00000060: e5f6 3d3e 3f55 08bf 30d6 b5be b3d5 b5be
00000070: b4cf e03e 95c3 ccbe 67cf 2dbf f87f ac3e
00000080: 6cf2 5e3e f4a0 0f3f 4f15 30bf 15cb a3be
00000090: f53a b53c a901 8abe d537 c7be bc9a 2ebf
000000a0: e0b4 34bf 401c e33e 2e76 8f3e 7b36 d63e
000000b0: 655d 91be c884 c4be 1c17 d7be c232 e33e
000000c0: bd39 e43e df3a 37bf bd74 963e 59df 35be
000000d0: d518 a73e dd10 ba3d 8107 813e 3e1d 06bf
000000e0: 6708 643e 7836 df3d 27fc 073f f2b5 bdbe
000000f0: 4d40 083f 1dfa e23e 7196 bebe c103 a83e
00000100: f92f 22bf da62 c43e 5f40 10bf ef41 f2be
00000110: c8ee a63e 35e9 dc3e 94fe 8c3e fb28 edbd
00000120: 8377 1a3e ca9e 803e 16a7 a53d 4fc7 cdbe
00000130: f47d 0cbf e570 d43e 40e9 f1be fd08 9abb
00000140: bc90 ec3d e012 2fbe c11e 173f 14e0 92be
00000150: fe41 dcbe 54aa 23bf 6373 abbe 8dc3 373f
00000160: 48ae 8fbe 0c10 dd3d e9ca 36bf 33b2 1ebd
00000170: 3314 013f cda4 f4bd 0c72 04bf 454f 213d
00000180: 75e4 803e 9d20 65be 5cee 283b f804 873e
00000190: fd46 aa3d fbc4 063f b116 2abf 545a cfbe
000001a0: 0b8f fb3d 4fa9 f33d 4d5b 0e3f d008 bbbe
000001b0: 5ef7 8dbe 447a e83e 5dbb e53e d3a7 d03e
000001c0: b5fb 24bf b7f9 3abf 8970 45be 4f0c 573e
000001d0: 7202 08bf eed8 32bf 1450 af3e cfe0 03bf
000001e0: 7408 ba3e 56bc b23e 1a61 263f 4f25 863d
000001f0: 8301 fb3e 1a03 9f3e 9608 093e 01eb 9cbe

encoder.bn1.weight f4 [128]
0.9583232 0.98270357 1.002123 0.98622483 1.0322868 0.9872099 0.96696126 0.99892884
1.0117325 1.0178729 1.0219712 1.0481399 0.9927153 0.9754943 0.99295115 1.0023993
0.9940812 1.0363481 0.9862742 1.0088032 0.98181283 0.9911139 1.0065715 1.0073421
0.9833616 1.0097144 0.9831255 1.0083282 1.0041093 0.9931712 1.0208513 0.98594683
0.9967027 1.0262477 0.96396303 1.0038403 0.9885817 0.97831553 1.0082945 1.0253317
1.0079521 1.0148747 1.0265999 0.9951614 0.9817056 0.9927994 1.0149727 1.005631
1.0205882 0.982902 1.0225292 1.0039576 0.9890078 0.9988639 1.0200754 0.996596
1.0083797 0.96999323 0.98502475 0.9957817 0.9688473 1.0047096 0.993089 0.97783947
1.0069358 1.0255824 0.9705334 0.9752333 0.99397933 1.0055702 0.9814314 0.9831209
1.0029753 1.0014749 1.0132451 1.0136245 1.0177335 1.0047212 1.0071852 0.978774
1.016285 1.0046645 0.9923551 1.0173192 1.0012685 1.0052617 0.98656374 0.9724875
0.9878868 1.005663 1.0196062 1.0032889 0.98529553 0.98420495 1.0248586 1.0060077
1.0267318 0.9859163 1.0160339 1.0258353 0.97667646 0.98168933 1.0047718 0.987173
1.0206646 1.0293164 0.99222994 0.9921843 1.0185909 0.9913613 1.0115038 1.0134616
1.025884 0.98684907 0.987263 0.9722062 1.0308222 0.9890601 0.982704 1.0075525
1.0241941 1.00764 0.9913002 0.9675342 0.99764216 1.0175886 0.9996257 0.98833543
00000000: ab54 753f 7692 7b3f 9145 803f 3b79 7c3f
00000010: f921 843f cab9 7c3f c68a 773f cdb9 7f3f
00000020: 7380 813f a949 823f f4cf 823f 7329 863f
00000030: 9722 7e3f ffb9 793f 0c32 7e3f 9f4e 803f
00000040: 1b7c 7e3f 0ea7 843f 777c 7c3f 7720 813f
00000050: 1658 7b3f a4b9 7d3f 56d7 803f 96f0 803f
00000060: 96bd 7b3f 523e 813f 1dae 7b3f e610 813f
00000070: a786 803f 7840 7e3f 41ab 823f 0367 7c3f
00000080: e827 7f3f 165c 833f 48c6 763f d77d 803f
00000090: b113 7d3f e372 7a3f cb0f 813f 123e 833f
000000a0: 9304 813f 6ae7 813f a067 833f e6c2 7e3f
000000b0: 0f51 7b3f 1a28 7e3f a0ea 813f 84b8 803f
000000c0: a2a2 823f 779f 7b3f 3de2 823f af81 803f
000000d0: 9d2f 7d3f 8bb5 7f3f d591 823f ea20 7f3f
000000e0: 9612 813f 7a51 783f 952a 7c3f 8deb 7e3f
000000f0: 6006 783f 539a 803f 153b 7e3f b053 7a3f
00000100: 46e3 803f 4946 833f e074 783f e4a8 793f
00000110: 6e75 7e3f 86b6 803f 173f 7b3f d0ad 7b3f
00000120: 7f61 803f 5430 803f 04b2 813f 73be 813f
00000130: 1745 823f b49a 803f 72eb 803f ef90 7a3f
00000140: a015 823f d998 803f fc0a 7e3f 8437 823f
00000150: 9129 803f 6aac 803f 718f 7c3f f1f4 783f
00000160: 26e6 7c3f 91b9 803f 7582 823f c56b 803f
00000170: 543c 7c3f dbf4 7b3f 912e 833f dcc4 803f
00000180: f36b 833f 0365 7c3f 660d 823f 924e 833f
00000190: 7807 7a3f fe4f 7b3f 5d9c 803f 5fb7 7c3f
000001a0: 23a5 823f a4c0 833f c802 7e3f caff 7d3f
000001b0: 3061 823f dbc9 7d3f f578 813f 1cb9 813f
000001c0: 2b50 833f 24a2 7c3f 45bd 7c3f 81e2 783f
000001d0: fbf1 833f 0b33 7d3f 7d92 7b3f 7bf7 803f
000001e0: cb18 833f 59fa 803f dac5 7d3f 52b0 773f
000001f0: 7a65 7f3f 5840 823f 78e7 7f3f 8d03 7d3f

encoder.bn1.bias f4 [128]
-0.042477056 -0.01988826 0.019392125 0.0064322543 0.02223604 -0.03255042 -0.028327297 0.009501144
0.009597242 0.016475117 0.03278378 0.02818391 -0.0027513811 -0.026323717 -0.017872313 0.025465276
0.0080714505 0.045894653 -0.008744814 0.023544945 -0.014788414 -0.011553342 -0.00025246385 0.016434547
0.0039030192 -0.022264522 -0.0127773 -0.0037288994 0.011399576 -0.014214667 0.026592704 -0.01385306
-0.032652225 0.025349759 -0.015282793 0.045061845 -0.022122338 -0.019932652 0.025385343 0.025823768
0.012428085 -0.0060967095 0.028570727 -0.008531606 -0.023327984 -0.009262225 0.01954398 0.014632436
0.030591128 -0.006794367 -0.0025829913 0.04455978 -0.022491803 -0.00405051 -0.010136226 0.012795047
0.024236979 -0.023546293 -0.009444143 -0.019098967 -0.026714066 0.03830783 -0.018001797 -0.028814802
0.02221439 0.039977413 -0.010613858 -0.027856616 -0.010081453 0.035850145 -0.010048986 -0.021310778
-0.002286417 0.02048946 0.016213685 0.004011997 0.025270896 0.029973239 0.01275132 -0.0069317776
0.034310758 0.017567495 -0.01043085 0.019541489 0.015333735 0.0016512461 -0.008336786 -0.026969591
-0.036850087 0.01696196 0.021482369 0.037476823 -0.018091606 -0.027474297 0.03986634 -0.0030317595
0.02805925 -0.025598552 0.015195346 0.023381192 -0.020268897 -0.018703207 -0.0037177894 -0.010589217
0.03788229 0.026163997 -0.0047781975 -0.009516903 0.010095255 0.007373787 0.01660895 0.017710432
0.019831784 -0.0054017734 -0.018201008 -0.028849132 0.016425097 -0.013626576 -0.022586854 0.02163664
0.043991487 0.01166491 -0.019975727 -0.02434084 -0.00424452 0.016080145 0.008607022 0.0048700287
00000000: 6cfc 2dbd b4ec a2bc 3cdc 9e3c a9c5 d23b
00000010: 5b28 b63c 9753 05bd a60e e8bc b0aa 1b3c
00000020: c03d 1d3c d3f6 863c 4948 063d f1e1 e63c
00000030: 8450 34bb d6a4 d7bc f568 92bc 8e9c d03c
00000040: 1e3e 043c 08fc 3b3d 6946 0fbc 54e1 c03c
00000050: 1b4b 72bc 3b4a 3dbc 205d 84b9 bea1 863c
00000060: ccc9 7f3b 1664 b6bc e157 51bc 8d60 74bb
00000070: 4ac5 3a3c a2e4 68bc f1d8 d93c f2f7 62bc
00000080: 57be 05bd 4caa cf3c ae64 7abc c592 383d
00000090: e839 b5bc cd49 a3bc ecf4 cf3c 5e8c d33c
000000a0: 2b9f 4b3c e8c6 c7bb 280d ea3c 26c8 0bbc
000000b0: 541a bfbc 96c0 17bc b21a a03c e3bc 6f3c
000000c0: 3f9a fa3c 48a3 debb 6747 29bb 5184 363d
000000d0: bb40 b8bc 24ba 84bb 6a12 26bc 51a2 513c
000000e0: a18c c63c 28e4 c0bc 9bbb 1abc 7075 9cbc
000000f0: 75d7 dabc ace8 1c3d 8178 93bc 050d ecbc
00000100: f4fa b53c 5bbf 233d bfe5 2dbc 8f33 e4bc
00000110: ae2c 25bc 9ad7 123d 81a4 24bc f193 aebc
00000120: b6d7 15bb 83d9 a73c 90d2 843c 1277 833b
00000130: e904 cf3c 708a f53c eaea 503c f723 e3bb
00000140: 7089 0c3d b5e9 8f3c 28e6 2abc 7915 a03c
00000150: 593a 7b3c a06e d83a 0497 08bc 55ef dcbc
00000160: 1ef0 16bd cff3 8a3c cbfb af3c 4c81 193d
00000170: d934 94bc c711 e1bc e34a 233d 7cb0 46bb
00000180: 83dc e53c 0eb4 d1bc e7f5 783c ea89 bf3c
00000190: f50a a6bc 7837 99bc 28a6 73bb 657e 2dbc
000001a0: 762a 1b3d e155 d63c 6d92 9cbb c9ec 1bbc
000001b0: 9266 253c cf9f f13b 7e0f 883c 7815 913c
000001c0: 4476 a23c 5c01 b1bb 481a 95bc 0455 ecbc
000001d0: ed8d 863c 0142 5fbc 1108 b9bc 533f b13c
000001e0: 6b30 343d 2e1e 3f3c 23a4 a3bc 7166 c7bc
000001f0: 9d15 8bbb 82ba 833c 7804 0d3c c394 9f3b

encoder.bn1.running_mean f4 [128]
-0.40834793 0.4661945 -0.32096478 -0.65719557 -0.60258144 0.31634334 0.0394655 0.019515065
0.11540073 -0.1237131 0.10311254 0.3371336 0.64798164 -0.1812531 -0.21782368 0.04362004
0.19506505 -0.52082694 0.62078786 0.17508481 0.007490364 0.57234585 0.024742607 -0.38076657
0.3056074 -0.68913347 0.3646444 -0.5505162 0.27876186 -0.21278414 0.51951414 -0.017559955
0.59908766 0.38192436 0.27406177 -0.05381408 0.67385375 0.087725386 -0.44296846 -0.535196
-0.19595847 0.43538326 -0.40515664 -0.65611625 -0.5055532 -0.5339945 -0.4210697 -0.20324853
-0.3108396 0.59666353 0.5497781 0.2338714 -0.06396126 -0.45325089 -0.23519671 0.24457034
-0.20697628 -0.59480274 0.14649628 0.01965507 -0.28773403 0.63270783 0.1056166 -0.29828805
0.486942 0.05097219 -0.50978297 -0.21839625 0.6961726 -0.6398684 -0.24912481 0.29872337
0.6358231 -0.3149959 0.2161813 0.27462506 -0.08723207 0.60738796 0.37183067 -0.20927826
-0.42052063 0.14435515 0.676682 -0.4533251 -0.24321564 -0.16829209 0.063508235 0.39473674
0.71557504 -0.16794896 0.15659761 0.6738662 0.4540895 0.67772746 0.0021196266 0.1826136
-0.19159693 0.19466054 0.45492223 0.5765685 0.23592453 0.43393263 -0.23511808 0.45150852
0.13392213 0.5002137 0.5016618 -0.5512741 -0.63303995 -0.28030866 0.3899334 0.13229053
-0.05291812 -0.51499873 -0.3213791 0.6720959 0.0061568776 0.26827753 0.2527145 0.65646154
-0.08384078 -0.20390077 -0.2876717 0.22940072 0.58872515 0.50953543 -0.6013397 -0.6623694
00000000: fb12 d1be 0cb1 ee3e 7f55 a4be f83d 28bf
00000010: c742 1abf c1f7 a13e 93a6 213d 0fde 9f3c
00000020: 3857 ec3d 4b5d fdbd ab2c d33d c69c ac3e
00000030: 20e2 253f 6a9a 39be 2c0d 5fbe edaa 323d
00000040: 22bf 473e ea54 05bf f4eb 1e3f 6f49 333e
00000050: ba71 f53b 4285 123f 02b1 ca3c d6f3 c2be
00000060: 9378 9c3e 0d6b 30bf acb2 ba3e a1ee 0cbf
00000070: e0b9 8e3e 16e4 59be e1fe 043f e5d9 8fbc
00000080: cf5d 193f 978b c33e d351 8c3e 276c 5cbd
00000090: ae81 2c3f 5ea9 b33d c3cc e2be 9b02 09bf
000000a0: 56a9 48be 8eea de3e b170 cfbe 3cf7 27bf
000000b0: ef6b 01bf ddb3 08bf 7396 d7be 6220 50be
000000c0: 5e26 9fbe f1be 183f 42be 0c3f fc7b 6f3e
000000d0: 1ffe 82bd 8010 e8be 68d7 70be a670 7a3e
000000e0: 97f1 53be fe44 18bf 1f03 163e ab03 a13c
000000f0: e051 93be 24f9 213f 844d d83d 36b9 98be
00000100: 7650 f93e 37c8 503d 2381 02bf 44a3 5fbe
00000110: 5e38 323f 6ace 23bf 931a 7fbe 45f2 983e
00000120: 4dc5 223f 2547 a1be a15e 5d3e a89b 8c3e
00000130: baa6 b2bd c77d 1b3f 9760 be3e 0a4d 56be
00000140: 7b4e d7be d6d1 133e 083b 2d3f 3a1a e8be
00000150: 850d 79be c354 2cbe 9b10 823d ef1a ca3e
00000160: ed2f 373f d0fa 2bbe 205b 203e 7f82 2c3f
00000170: 6b7e e83e 8c7f 2d3f 6fe9 0a3b 0fff 3a3e
00000180: fc31 44be 1855 473e 91eb e83e fe99 133f
00000190: 3396 713e 6b2c de3e cbc2 70be 202c e73e
000001a0: e222 093e 010e 003f e86c 003f 4d20 0dbf
000001b0: e80e 22bf 9e84 8fbe 5aa5 c73e 2b77 073e
000001c0: acc0 58bd f5d6 03bf cd8b a4be 7a0e 2c3f
000001d0: a2bf c93b ac5b 893e cc63 813e dd0d 283f
000001e0: b7b4 abbd 5dcb 50be b449 93be 06e8 6a3e
000001f0: b1b6 163f ea70 023f 66f1 19bf 0a91 29bf

encoder.bn1.running_var f4 [128]
0.0018710954 0.0036368738 0.017030558 0.07236362 0.08586659 0.025479257 0.08959477 0.049168527
0.030905152 0.009037092 0.016032958 0.09188046 0.02725014 0.013480341 0.02071423 0.018412188
0.0028368207 0.009537936 0.024527581 0.013943805 0.040138315 0.009743973 0.024832984 0.0063543925
0.08829842 0.0059599075 0.055931207 0.049992424 0.02371767 0.045953736 0.0029542262 0.055673532
0.009773509 0.06504747 0.012436758 0.057887603 0.12614329 0.010076705 0.064259656 0.0063450546
0.02783727 0.008095681 0.010308231 0.012378071 0.03697211 0.025393087 0.010347134 0.007568141
0.023916323 0.03616094 0.020333469 0.011802425 0.018242601 0.0056020617 0.023446796 0.023850344
0.01600965 0.004657047 0.07429196 0.028211687 0.044730548 0.028203508 0.00049616926 0.0406229
0.036056805 0.024585892 0.15722549 0.023513796 0.061268307 0.0104712 0.0026990983 0.0016040537
0.07955457 0.039893422 0.0018014255 0.04111358 0.0066053756 0.028672978 0.01960946 0.0018193325
0.009082519 0.02205123 0.012102728 0.105432585 0.03518264 0.02620925 0.007858676 0.026457459
0.015195725 0.070042916 0.01397403 0.0019991486 0.020478623 0.004316053 0.037255194 0.02172889
0.01974668 0.09611545 0.044931836 0.017988123 0.050555855 0.030849243 0.01568278 0.012866466
0.048406053 0.114677936 0.008855398 0.02831315 0.011517115 0.10252115 0.051267974 0.08573656
0.028378835 0.020905027 0.100138836 0.08169033 0.051082898 0.0072700772 0.07938627 0.031406786
0.0069773975 0.052785058 0.016333953 0.0068339636 0.010594816 0.04763567 0.07666572 0.0025244257
00000000: 8b3f f53a 9e58 6e3b ab83 8b3c 6133 943d
00000010: d3da af3d e0b9 d03c 767d b73d f064 493d
00000020: cd2c fd3c 5010 143c 8d57 833c d32b bc3d
00000030: b03b df3c a6dc 5c3c e4b0 a93c 28d5 963c
00000040: f4e9 393b 0145 1c3c 11ee c83c 8f74 643c
00000050: 1368 243d 2fa5 1f3c 8b6e cb3c 8238 d03b
00000060: cdd5 b43d 544b c33b 1f18 653d dbc4 4c3d
00000070: 8f4b c23c fc39 3c3d b19b 413b ee09 643d
00000080: 1121 203c 9c37 853d 8bc3 4b3c 8d1b 6d3d
00000090: b52b 013e c418 253c 919a 833d 2dea cf3b
000000a0: fd0a e43c bfa3 043c dbe3 283c 65cd 4a3c
000000b0: 1170 173d 2a05 d03c 0787 293c 2bfe f73b
000000c0: 2aec c33c 7e1d 143d 6092 a63c f55e 413c
000000d0: 8271 953c 8091 b73b 7f13 c03c cc61 c33c
000000e0: ab26 833c 249a 983b 6226 983d 321c e73c
000000f0: 6137 373d 0b0b e73c 5b11 023a 3364 263d
00000100: 4db0 133d 5a68 c93c b8ff 203e 01a0 c03c
00000110: 7af4 7a3d 658f 2b3c 5be3 303b 1c3f d23a
00000120: 82ed a23d 4967 233d cf1d ec3a b766 283d
00000130: e871 d83b 98e3 ea3c 05a4 a03c ab76 ee3a
00000140: d9ce 143c c8a4 b43c 854a 463c 0aed d73d
00000150: ac1b 103d c8b4 d63c adc1 003c 50bd d83c
00000160: 7df7 783c a972 8f3d 54f3 643c 2604 033b
00000170: c9c2 a73c ad6d 8d3b e798 183d c900 b23c
00000180: cac3 a13c 2dd8 c43d 720a 383d d45b 933c
00000190: a813 4f3d 8db7 fc3c 2c79 803c dfcd 523c
000001a0: 6d45 463d 44dc ea3d 3b16 113c fbf0 e73c
000001b0: 48b2 3c3c 9cf6 d13d 5efe 513d a696 af3d
000001c0: bb7a e83c 0541 ab3c 9715 cd3d 424d a73d
000001d0: 4d3c 513d d439 ee3b 4595 a23d 67a4 003d
000001e0: a7a2 e43b 2535 583d c8ce 853c 71ef df3b
000001f0: e195 2d3c 9f1d 433d eb02 9d3d d670 253b

encoder.pool1.select.weight f4 [1, 128]
0.020375736 -0.02057021 0.041930538 -0.022587232 0.06652281 -0.055853352 0.01402832 -0.027725054
0.07534354 0.06426662 0.025108665 0.043952033 -0.0021692042 0.008815996 -0.0026159491 0.040301688
-0.018250762 0.078920975 0.0061159125 0.047152758 0.018723758 -0.010010665 0.057202075 0.06378305
-0.014399078 0.013946584 -0.070294544 -0.01145341 0.092043474 -0.07810333 0.094581164 -0.05785367
-0.046697665 0.014920296 -0.041232012 -0.02060007 -0.049792364 -0.047079824 0.05346097 0.014389628
0.04930575 0.030811392 0.09944953 0.00010853652 -0.053023856 0.013934816 0.096540585 0.05381118
0.04759884 -0.06723042 0.035437655 0.07064065 -0.046481498 0.022842593 0.0045624254 0.031366356
0.079936355 -0.03453114 0.033912238 -0.070611075 -0.037585106 0.037140194 -0.075549304 -0.037610758
0.045391243 0.06539466 -0.0062892274 -0.01601313 0.01702271 0.00952693 -0.005255226 -0.066569716
0.0138357105 0.04997831 0.09448184 0.0108111985 0.057209976 0.08995175 0.072873674 -0.020876812
0.08905519 0.040590517 -0.029136173 0.0025395085 0.0035208038 0.043227553 -0.010597945 -0.06974808
0.009090761 0.049354527 0.08095088 0.077906385 -0.07428269 -0.054022145 0.09585002 -0.055822566
0.042298608 -0.0733255 0.085947596 0.12387308 0.01267919 -0.052940745 -0.018443275 -0.07142395
-0.03218085 0.087519534 -0.03517538 -0.049171645 0.03815824 -0.039739907 0.08320842 0.05135489
0.041300673 -0.02467546 -0.04093982 -0.03156345 0.06336397 -0.022255244 -0.07073266 0.07286733
0.07239131 0.025481235 -0.037573073 -0.046194013 -0.07056157 0.027736042 -0.070112474 9.438655e-05
00000000: 04eb a63c db82 a8bc 5bbf 2b3d dc08 b9bc
00000010: 1c3d 883d 7cc6 64bd 0ad7 653c a71f e3bc
00000020: b74d 9a3d 389e 833d b0b0 cd3c 0c07 343d
00000030: 3529 0ebb f870 103c 5870 2bbb 6213 253d
00000040: 9f82 95bc 52a1 a13d fe67 c83b 4023 413d
00000050: 9162 993c c603 24bc b94c 6a3d b0a0 823d
00000060: 1cea 6bbc 3780 643c 96f6 8fbd 15a7 3bbc
00000070: 4a81 bc3d a4f4 9fbd c5b3 c13d f8f7 6cbd
00000080: 0d46 3fbd 4274 743c e6e2 28bd 7ac1 a8bc
00000090: 14f3 4bbd c6d6 40bd e4f9 5a3d 79c2 6b3c
000000a0: d3f4 493d 2c68 fc3c 32ac cb3d 1a9e e338
000000b0: 8b2f 59bd db4e 643c 12b7 c53d 1d69 5c3d
000000c0: 00f7 423d 1ab0 89bd 1327 113d 0cac 903d
000000d0: 6263 3ebd 6420 bb3c 6680 953b 027a 003d
000000e0: acb5 a33d 8670 0dbd 8fe7 0a3d 8a9c 90bd
000000f0: d7f2 19bd 5120 183d 98b9 9abd bd0d 1abd
00000100: 2bec 393d a3ed 853d dd15 cebb f82d 83bc
00000110: 3673 8b3c d716 1c3c 0834 acbb b455 88bd
00000120: 2daf 623c 0eb6 4c3d b27f c13d 7421 313c
00000130: 0255 6a3d a038 b83d cb3e 953d d905 abbc
00000140: 9162 b63d 3e42 263d fcae eebc e26d 263b
00000150: 49bd 663b 600f 313d 01a3 2dbc 15d8 8ebd
00000160: 6af1 143c f927 4a3d 93c9 a53d 628d 9f3d
00000170: 8621 98bd 5346 5dbd 044d c43d 34a6 64bd
00000180: 4e41 2d3d ae2b 96bd 4b05 b03d 2bb1 fd3d
00000190: 61bc 4f3c 65d8 58bd 5a16 97bc b846 92bd
000001a0: 11d0 03bd 713d b33d 0f14 10bd 3568 49bd
000001b0: d14b 1c3d 50c6 22bd 2d69 aa3d 8159 523d
000001c0: e52a 293d 3124 cabc 83b0 27bd ad48 01bd
000001d0: f8c4 813d a150 b6bc 49dc 90bd 773b 953d
000001e0: e541 943d 06be d03c 39e6 19bd ef35 3dbd
000001f0: 9682 90bd b236 e33c 2197 8fbd 65f1 c538

encoder.gat2.att f4 [1, 2, 32]
0.19425578 0.25252172 -0.3868557 0.38869724 0.27577993 0.27188906 -0.17084524 -0.11113921
-0.083348066 0.1804803 0.27543515 0.41531542 0.17036933 -0.026603242 0.31469363 -0.033250816
0.18916598 0.08640948 -0.09440561 0.09746959 0.41066235 0.08573978 0.40897173 -0.12908669
0.40540582 -0.35565874 0.42695078 -0.21747322 0.20409873 -0.11868946 -0.36122358 0.0054019457
0.10251174 0.31204164 -0.06129493 -0.15288906 -0.1561579 -0.39320198 0.23406601 -0.24591106
0.2567159 0.15742064 -0.20862666 -0.28690508 0.11618378 0.16140749 -0.3074508 0.06862462
-0.31202132 -0.17645739 -0.1894524 0.2293845 -0.11650011 -0.0053898455 0.286821 0.40019494
-0.18896425 0.01499707 0.4082459 0.3034134 -0.39326292 -0.38707295 -0.2993626 0.21682465
00000000: fdea 463e 874a 813e f311 c6be 5303 c73e
00000010: 0733 8d3e 0b35 8b3e 0ef2 2ebe f49c e3bd
00000020: 64b2 aabd d4cf 383e d605 8d3e 39a4 d43e
00000030: 4c75 2e3e 0bef d9bc 861f a13e 0232 08bd
00000040: bab4 413e 74f7 b03d ba57 c1bd 239e c73d
00000050: 5642 d23e 5698 af3d be64 d13e 4d2f 04be
00000060: 5a91 cf3e e718 b6be 4b99 da3e 4db1 5ebe
00000070: 42ff 503e 7613 f3bd 4cf2 b8be ce02 b13b
00000080: adf1 d13d ecc3 9f3e 6410 7bbd f38e 1cbe
00000090: dbe7 1fbe c551 c9be 00af 6f3e 1cd0 7bbe
000000a0: 4470 833e e032 213e 3aa2 55be 39e5 92be
000000b0: c3f1 ed3d 0148 253e 316a 9dbe 118b 8c3d
000000c0: 42c1 9fbe 3fb1 34be cfff 41be c5e3 6a3e
000000d0: 9c97 eebd 4d9d b0bb 34da 923e 5ae6 cc3e
000000e0: d87f 41be 45b6 753c 9b05 d13e 0059 9b3e
000000f0: c259 c9be 6d2e c6be 0e46 99be 4807 5e3e

encoder.gat2.bias f4 [64]
-0.0024026977 0.001240846 0.0058115683 0.00051140727 0.008759123 -0.0057719685 0.002699554 -0.0017879776
-0.00017538115 0.0045837816 0.0044150464 0.0004017521 0.0014654333 0.0015033365 -0.0021632526 -0.008178149
0.001488131 0.0017142138 0.006901506 0.00023960987 -0.0030811804 -0.0026250998 0.009571732 -0.0033370191
0.005843938 0.01190115 -0.00014829144 -0.0019023368 0.0028078915 0.0018402581 0.0036690168 0.00044858616
0.0006900042 0.0066328296 0.0026646939 0.003735333 0.003958543 0.0017463678 -0.002233305 -0.0077403705
0.0011661019 0.009234942 -0.0050778356 -0.0055017667 0.000685082 0.0021721767 0.004367888 -0.00037220184
-0.00015960686 -0.00013374639 0.0054509323 -0.00016825505 -0.0021804457 -0.000334181 0.0024478557 0.00064185815
-0.005091617 0.00035323505 0.010900656 -0.0023328906 0.0029730191 -0.0024041715 -0.0032030456 -0.0018112735
00000000: 9476 1dbb e2a3 a23a f86e be3b f60f 063a
00000010: 6d82 0f3c c822 bdbb 00eb 303b 935a eaba
00000020: 85e6 37b9 8c33 963b 18ac 903b 41a2 d239
00000030: c813 c03a 9a0b c53a 5bc5 0dbb a5fd 05bc
00000040: 640d c33a 78af e03a 0726 e23b c93f 7b39
00000050: a1ed 49bb de09 2cbb c1d2 1c3c e4b1 5abb
00000060: 817e bf3b 0bfd 423c ae7e 1bb9 d557 f9ba
00000070: 9a04 383b d134 f13a e373 703b 3730 eb39
00000080: 66e1 343a 3558 d93b 25a2 2e3b 7dcc 743b
00000090: aab6 813b 61e6 e43a a45c 12bb efa2 fdbb
000000a0: e3d7 983a 274e 173c f963 a6bb 2a48 b4bb
000000b0: 1397 333a 145b 0e3b 8020 8f3b 1624 c3b9
000000c0: 245c 27b9 463e 0cb9 bc9d b23b 9f6d 30b9
000000d0: cfe5 0ebb 0435 afb9 346c 203b 5f42 283a
000000e0: 94d7 a6bb 6832 b939 aa98 323c 69e3 18bb
000000f0: fcd6 423b 4e8f 1dbb 30ea 51bb 4168 edba

encoder.gat2.lin_l.weight f4 [64, 128]
0.08411788 -0.14754216 0.022468884 -0.13663968 0.039165333 -0.036252987 0.03190559 -0.027043037
0.052894153 0.09254512 0.09148904 -0.1758034 -0.12558104 0.026478387 -0.0670153 -0.1057927
0.1091647 -0.18595383 -0.16985255 0.11179587 -0.09358477 -0.1472212 -0.04671619 0.087668866
0.08159594 -0.11849003 0.071742706 0.098318055 0.15634255 -0.002362132 -0.102198556 0.16001904
-0.14963219 -0.0521677 0.13628605 -0.052500762 -0.07331205 0.12500256 -0.15315956 -0.16220778
0.0019047958 0.1650004 -0.17915253 -0.046253376 -0.11340591 -0.1547446 -0.08342016 0.12407933
0.06262396 0.11888577 0.018993938 -0.1252252 0.044009075 0.03310229 -0.16018516 -0.045929287
-0.028625363 0.15178326 0.14056617 -0.017368559 -0.12369348 -0.08354761 -0.112958685 0.1195198
0.048366297 -0.11442963 -0.17429316 -0.12637427 -0.1364149 0.023621332 -0.027288565 -0.12623127
0.0540403 -0.15716206 0.15004325 0.14943036 0.09271116 -0.090943106 -0.16868596 -0.14836472
-0.15561202 0.13606179 -0.03942107 -0.024012707 -0.15044428 0.0010577675 0.13483888 -0.1651455
0.046339236 0.060024213 0.07054456 0.1548988 -0.07952839 0.13964982 0.0090894895 0.016239235
0.002783846 0.08082754 -0.15083197 0.0038798056 0.16295858 0.07557615 0.1381632 -0.0964459
0.011707022 -0.14095691 -0.19507952 -0.15812682 -0.036553737 -0.15937045 -0.073527485 0.06356794
-0.10657513 -0.14894243 -0.05705001 -0.03226024 0.100965485 -0.08659896 -0.052754816 -0.15883964
-0.0044150054 -0.08837855 -0.007789896 0.03703013 0.038947996 0.15552743 -0.024835218 -0.033267133
0.027455855 0.112969086 0.15615173 -0.02408263 0.12229948 0.00955249 0.078966424 -0.037648086
0.008822629 0.114145175 0.070979245 0.13439152 0.004597244 0.16858959 -0.008721536 -0.034290124
-0.0072517563 -0.1233166 0.07375986 -0.015982829 -0.050955232 -0.1579465 -0.14653736 0.1479122
-0.08913599 -0.0019352213 0.1139219 -0.03639983 0.10538783 0.100351766 0.08049861 -0.1718003
0.08234489 0.13048078 0.14186849 0.1836902 0.10024954 0.05934297 0.17384654 -0.116642386
0.17233723 0.16009754 -0.1106263 -0.0038280112 -0.041215543 -0.08185531 -0.039357845 0.16413756
0.06112806 0.07688536 -0.05178116 -0.17441064 0.11976789 0.16925834 0.1317343 0.111898854
-0.16221158 -0.113041155 0.0707716 0.10864622 0.10752123 0.008617452 -0.07158668 0.046664007
0.057633124 -0.12570974 -0.032232698 -0.1525852 -0.13443795 0.020866478 -0.041936085 -0.18036756
0.029097402 -0.057738364 -0.19419599 -0.03599217 -0.12089932 0.17220627 -0.14808792 0.051952273
-0.0014502506 -0.055788886 -0.14959615 -0.17483899 -0.015709601 0.07175486 0.056296673 0.07051326
-0.039457213 0.17679054 -0.16976832 0.040883824 -0.16278908 -0.08335033 0.10298194 -0.11476985
-0.067277886 0.077099815 -0.0062335352 -0.024581378 0.04851274 -0.026150977 0.030759657 -0.035310037
-0.0333365 -0.14015864 0.021611422 0.08876964 0.10372158 0.1256917 -0.063852765 -0.1215786
-0.17360422 0.085700355 0.14958477 -0.017168168 0.042564623 0.0067942482 0.060669925 0.17500064
-0.025064033 -0.011264904 0.12888779 0.020399755 0.01742375 -0.11066224 0.15941092 0.004507575
00000000: ff45 ac3d 4b15 17be aa10 b83c 46eb 0bbe
00000010: d46b 203d 037e 14bd 70af 023d 5c89 ddbc
00000020: 8aa7 583d 4c88 bd3d 9b5e bb3d ce05 34be
00000030: 5198 00be 34e9 d83c 513f 89bd d8a9 d8bd
00000040: be91 df3d ae6a 3ebe d4ed 2dbe 3cf5 e43d
00000050: 5fa9 bfbd 27c1 16be 7a59 3fbd bc8b b33d
00000060: c61b a73d e7aa f2bd d7ed 923d fa5a c93d
00000070: 4318 203e 00ce 1abb 7a4d d1bd 08dc 233e
00000080: 2e39 19be ccad 55bd 928e 0b3e 0a0b 57bd
00000090: a124 96bd ac00 003e dcd5 1cbe cc19 26be
000000a0: 57aa f93a ddf5 283e c373 37be 2e74 3dbd
000000b0: 5c41 e8bd 5e75 1ebe 30d8 aabd 4e1d fe3d
000000c0: fe40 803d 627a f33d 2d99 9b3c 093b 00be
000000d0: dc42 343d 4496 073d 9407 24be 5920 3cbd
000000e0: bd7f eabc 126d 1b3e 94f0 0f3e 8248 8ebc
000000f0: 0253 fdbd 021b abbd e256 e7bd ccc6 f43d
00000100: bd1b 463d 155a eabd e879 32be 4268 01be
00000110: 59b0 0bbe 8681 c13c 458c dfbc c542 01be
00000120: 5d59 5d3d 17ef 20be f0a4 193e 4604 193e
00000130: 59df bd3d 6140 babd 03bc 2cbe ecec 17be
00000140: c258 1fbe c853 0b3e fd77 21bd 4cb6 c4bc
00000150: 110e 1abe caa4 8a3a 3413 0a3e e71b 29be
00000160: 36ce 3d3d f3db 753d ab79 903d cb9d 1e3e
00000170: c8df a2bd 5d00 0f3e 15ec 143c 2508 853c
00000180: 3071 363b e988 a53d b273 1abe 5644 7e3b
00000190: 9dde 263e abc7 9a3d a77a 0d3e 6e85 c5bd
000001a0: cfce 3f3c 0257 10be edc2 47be ffeb 21be
000001b0: 5fb9 15bd 0232 23be 9495 96bd e82f 823d
000001c0: 1044 dabd 5d84 18be 45ad 69bd 5023 04bd
000001d0: fec6 ce3d cc5a b1bd 6f15 58bd dca6 22be
000001e0: c0ab 90bb d0ff b4bd 6242 ffbb e8ac 173d
000001f0: ef87 1f3d 9542 1f3e 3a73 cbbc 1e43 08bd
00000200: 1aeb e03c 565c e73d 3de6 1f3e f048 c5bc
00000210: 2678 fa3d 0c82 1c3c 26b9 a13d e134 1abd
00000220: ca8c 103c f2c4 e93d 915d 913d ee9d 093e
00000230: 7aa4 963b c0a2 2c3e c6e4 0ebc cd73 0cbd
00000240: 24a0 edbb 6a8d fcbd 690f 973d 6cee 82bc
00000250: 6fb6 50bd babc 21be e40d 16be 4c76 173e
00000260: ee8c b6bd 40a7 fdba e34f e93d fd17 15bd
00000270: 93d5 d73d 3a85 cd3d 75dc a43d 6bec 2fbe
00000280: 70a4 a83d c19c 053e f945 113e 4919 3c3e
00000290: a14f cd3d 9d11 733d d404 323e 34e2 eebd
000002a0: 2c79 303e 9cf0 233e 0b90 e2bd 5fdf 7abb
000002b0: a1d1 28bd c2a3 a7bd b135 21bd ad13 283e
000002c0: 6b61 7a3d 1276 9d3d 7b18 54bd b498 32be
000002d0: de48 f53d 0f52 2d3e 5be5 063e 3a2b e53d
000002e0: cb1a 26be 1f82 e7bd b3f0 903d e981 de3d
000002f0: 1734 dc3d 3730 0d3c 0a9c 92bd c222 3f3d
00000300: b610 6c3d 0eba 00be 6f06 04bd 4b3f 1cbe
00000310: 1aaa 09be 2df0 aa3c 2cc5 2bbd 46b2 38be
00000320: ad5d ee3c 107f 6cbd 50db 46be 876c 13bd
00000330: 109a f7bd d756 303e 5ca4 17be e8cb 543d
00000340: 5616 beba e382 64bd bc2f 19be fe08 33be
00000350: 6cb1 80bc 36f4 923d 5797 663d 4269 903d
00000360: e39d 21bd 9408 353e bfd7 2dbe cc75 273d
00000370: 2eb2 26be 94b3 aabd 32e8 d23d 750c ebbd
00000380: fdc8 89bd 82e6 9d3d af42 ccbb e35e c9bc
00000390: 4bb5 463d 933a d6bc adfb fb3c 42a1 10bd
000003a0: db8b 08bd bf85 0fbe 700a b13c dbcc b53d
000003b0: fb6b d43d 53b5 003e 3dc5 82bd 33fe f8bd
000003c0: 4ec5 31be ab83 af3d c02c 193e 42a4 8cbc
000003d0: 3e58 2e3d 49a2 de3b 0781 783d 5e33 333e
000003e0: 1653 cdbc 6f90 38bc 29fb 033e 631d a73c
000003f0: 41bc 8e3c e2a2 e2bd 9e3c 233e 48b4 933b
